checkpoints/model_20241207_175351.pth (torch, 409152 bytes, 4 tensors)

W1 f4 [784, 128]
00000000: 99e3 67bc 8838 003c 7905 1f3b 796d b13c
00000010: 961e 98bb 0207 4a3b dc3f 82bc 211f 0cbc
00000020: 3d30 58bc 1956 18bb 9288 e8bb 3ac0 fb3b
00000030: a85d a9bb da8c 4dbc d788 d2b9 68d8 4f3b
00000040: 54e2 283b 7c9f 3abc 5e92 3b3b 5af4 98bc
00000050: 7bde 72bc 51b2 0cbb 5b54 b6bc 3af8 483c
00000060: 3675 8cbb 6eac 633c 16b8 9c3b b979 49ba
00000070: c34d 60bc fda4 e63b bf40 7dbb 075d 28bc
00000080: a80e 873c bf5f 0f3c 556e 6dbc cd15 7e3b
00000090: a735 07ba 9604 a43b e94f 7a3b 8ad0 14bc
000000a0: 3379 10bb d170 3e38 4458 63bb cee9 f53b
000000b0: 6f1f 6a3b aa59 b13a c395 4ebc 84c4 8e3b
000000c0: 9524 423c 66f1 4a3a 75d9 13bc cc3d bf39
000000d0: 6ce5 423c 44a3 4dbc dcb7 92bb cd27 ad3a
000000e0: aef2 093b 916c 33bc f5da 61b9 ba25 3c3c
000000f0: e301 e03b c7ef a33c 0b90 0e3a eafd 34bc
00000100: 3908 42bc ebc3 25bc 4856 89bc ea1e 433a
00000110: 0712 dabb 5023 04bb da98 4bbc 31f8 55bc
00000120: 63d1 1fbc 388f 123c c0bd fa39 1303 d93a
00000130: 8fb0 1bbc 3ff0 8e3c 9830 30bb 0a56 dd3b
00000140: 91c2 b93b 08de a63a e88d 0abb 6bfc c1bb
00000150: f482 a8bb 3671 8c3c d1ff 533c d56f 4b3c
00000160: a0f2 c5bb 2ad0 5bbc 10ce 08bb 3b81 df39
00000170: f92a 07bb f105 833b 2d10 32bb f781 bebc
00000180: ec83 383c a616 6c3b b6c8 313b 820c 903c
00000190: d4ff cebb 7a10 4a3b cbfb 6b3c e1ba f5ba
000001a0: 57cd 39bc c7b1 4a3c 5d55 d2bb 5d4f 173b
000001b0: 4372 10bc bb14 833b 1c68 b3ba 2ada 443c
000001c0: cfd0 dcbb be3d 3d3c 34df 813c 3d43 0fbc
000001d0: e2ae 193c 0e71 34bb f8b5 a33b f256 653a
000001e0: 2bfa d7ba 3da2 95bc 7600 d73b 1091 763c
000001f0: 6599 d03b 3f7f 7d3c 721a 323c cd53 40bc
00000200: e3c2 8e3b 20f3 0bbc 408d 7d3c b131 ff3b
00000210: 89cf e1bc 7267 2bbc 23ef 633b 1869 0cbc
00000220: a7ff 11bc 76d6 0fb9 cdf0 0bbc 9ce0 5a3c
00000230: f694 90bb c013 343a 930f 90bc 4e3b 8dbc
00000240: d5a0 a23b 6842 45bb dc32 073b 8c3d 24bc
00000250: b108 b1bb f491 82bc 152d 1a3c 840e cbbb
00000260: 9c7f cc3b 5c4c 0ebb babe 663c 5564 c53a
00000270: bdda ecb8 227d 273c 1e55 273c fbbd 6e3c
00000280: 61d1 19bc dc4b e43c fd8a 67ba fb69 e5ba
00000290: 49de 1d3b b234 c5ba 0c6d f8bb 4ed0 fc3b
000002a0: b3f1 593b 907d 5e3c 1185 e4bb 9f0c 6d3c
000002b0: 04eb a9bc f23b 903a d1e7 03bc b0f8 c8bb
000002c0: ac4c b1bb eb61 a3bb 1df9 13bc b66b edbb
000002d0: 75d7 d9bc eb9b cbbc 4cc2 ff3a f300 05bc
000002e0: 6e69 93ba 1a9b 01bc bc36 8ebb 1681 69bc
000002f0: e594 513b a2ff beba 0386 313c b601 cd3c
00000300: aac3 3639 3c67 67bb 6af6 bf3a 421a 12ba
00000310: 080e 573b e90b f6ba f76e 98bc f1dc 46bc
00000320: b838 dbbb 9b53 cab6 7ea8 e33b 5a87 b33b
00000330: caaa e33a 7aa1 ea3b 3f06 e8bb 4dab 09bb
00000340: 0155 3d3c 574b 9abc c4f7 afbb b85f 3cbc
00000350: 388c 013a cae8 633b 69a3 e7bb 7be0 7cb9
00000360: 503f 693b 04cb 173c 2a93 31bb 38de 87bc
00000370: 748b abb9 be7f c23b abe1 cfba 9b95 183c
00000380: c2a9 58bc e00a 3abc 17ab e2bc 6063 1fbb
00000390: be60 393c 8db3 143c 1b8f 95bc c5c5 f93b
000003a0: 1035 a9bb 95d3 063c 111c a3b9 3354 0e3b
000003b0: 5662 a13c 0d50 643c 00b3 16bb 14bb 00bc
000003c0: 6596 05bc cd59 39bb 30c0 a13b bd93 c43b
000003d0: 4f67 08bc 70f3 8f3a 2dbf c93b d412 7a3c
000003e0: 3ea5 ebbb 7eb8 8cbc ecb2 8ebc ce2a e5bb
000003f0: 2e56 8b3b 00f1 ea3c 9959 a33b 6b9a 373b
-0.014153385 0.007825978 0.0024264737 0.021658646 -0.004642318 0.003082693 -0.015899591 -0.008552344
-0.013195095 -0.0023244678 -0.0070963586 0.0076828273 -0.0051686354 -0.012545789 -0.00040156275 0.0031714682
0.0025769668 -0.011390563 0.0028621177 -0.018671203 -0.014823551 -0.002146859 -0.02225702 0.012266213
-0.0042864336 0.013896091 0.004782687 -0.00076856796 -0.013690415 0.007038711 -0.0038643328 -0.010276086
0.01648648 0.008750855 -0.014491637 0.0038770318 -0.0005157836 0.0050054295 0.0038194603 -0.009082923
-0.0022044897 4.54046e-05 -0.0034690062 0.0075046783 0.0035724302 0.001353075 -0.012608948 0.0043569226
0.011849542 0.00077416596 -0.009024014 0.000364764 0.011895519 -0.012551133 -0.004477484 0.0013210714
0.002104919 -0.010951177 -0.0002153924 0.011483604 0.0068361624 0.020011796 0.0005438334 -0.011046866
-0.011842781 -0.010117511 -0.016764775 0.0007443266 -0.006654981 -0.002016265 -0.012426579 -0.013059662
-0.0097545115 0.008945279 0.0004782509 0.0016556702 -0.009502544 0.017448543 -0.0026884433 0.0067546414
0.005668946 0.0012730965 -0.0021141712 -0.005919983 -0.005142564 0.017143827 0.012939409 0.0124168
-0.006040886 -0.013416329 -0.0020874776 0.0004263016 -0.002062498 0.003998511 -0.0027170286 -0.023255331
0.011261921 0.0036024242 0.002712769 0.01758409 -0.006317118 0.0030832575 0.014403294 -0.0018747711
-0.011340461 0.012371487 -0.0064188675 0.0023088076 -0.008816305 0.004000274 -0.0013687643 0.012014905
-0.006738759 0.011550365 0.015853502 -0.008744058 0.009380074 -0.0027533206 0.0049960576 0.00087486126
-0.0016477754 -0.018265838 0.0065613342 0.015049234 0.0063659423 0.015472232 0.010870563 -0.01173873
0.0043567284 -0.008541852 0.015475571 0.007787906 -0.02756478 -0.010461675 0.0034779988 -0.008569978
-0.00891105 -0.00013717436 -0.008541298 0.013359215 -0.004412289 0.0006869398 -0.017585551 -0.017240193
0.0049630203 -0.0030099396 0.002062968 -0.01002444 -0.0054026474 -0.015938736 0.009410162 -0.0061967988
0.006240798 -0.0021712994 0.014083559 0.0015059809 -0.000112941 0.010222705 0.010213165 0.014571662
-0.009388299 0.027868204 -0.00088326616 -0.0017502898 0.002408879 -0.0015045612 -0.007581359 0.0077152615
0.0033255636 0.013579741 -0.0069738706 0.014468341 -0.020741947 0.0011004193 -0.008050875 -0.0061331615
-0.0054107513 -0.004986038 -0.009031561 -0.007245506 -0.026591996 -0.02485462 0.0019512861 -0.008117902
-0.001124663 -0.007910514 -0.004340021 -0.014251968 0.0031979617 -0.0014572034 0.010835174 0.02502523
0.00017429763 -0.0035309335 0.0014645581 -0.0005573371 0.003281476 -0.001877186 -0.0186076 -0.0121376375
-0.006690111 -6.029802e-06 0.006947576 0.0054787816 0.0017369625 0.007160363 -0.0070808227 -0.0021006644
0.011555911 -0.018834753 -0.005370112 -0.0114974305 0.00049418537 0.0034776204 -0.0070690406 -0.00024116218
0.0035590716 0.009264711 -0.0027095773 -0.016585454 -0.00032719562 0.005935638 -0.0015860101 0.0093130125
-0.013224067 -0.011355132 -0.027669473 -0.0024320707 0.011314569 0.009076011 -0.018256715 0.007622453
-0.0051637962 0.008229156 -0.00031110694 0.0021717667 0.01970021 0.013935101 -0.0022994876 -0.007857103
-0.008153533 -0.0028282285 0.0049362406 0.005999057 -0.008325412 0.0010982584 0.006156823 0.015263278
-0.0071913293 -0.017177816 -0.017419301 -0.006993628 0.004252217 0.02867937 0.004985046 0.0028015624

b1 f4 [1, 128]
00000000: cd49 0b37 5af6 45b8 6f2a b5b7 3d5b bcb7
00000010: e909 97b7 3d44 cdb7 db29 5237 13ff 29b7
00000020: 4cf8 b136 12f3 cd34 2ad6 4fb8 26f3 94b7
00000030: b90a 6937 be17 acb5 a8e2 8db6 476b 6db7
00000040: 3265 5eb5 90e3 30b7 fa37 d236 2e3f c737
00000050: 7779 0c37 362c 93b7 58bf 1eb7 6e55 0738
00000060: 6db9 8eb7 258c 89b5 c021 cc37 0170 dbb7
00000070: 6cb5 b837 44b8 1ab7 ae37 1238 c329 46b6
00000080: f8e4 50b7 5fb5 3eb7 f775 03b8 f977 25b7
00000090: 0227 3bb5 36cc 7fb7 b221 1737 bf32 34b7
000000a0: 615e 2436 1eb4 4ab7 a37b 99b7 e856 a733
000000b0: 274e bcb7 ea7a ccb6 22db 04b7 c899 2737
000000c0: d02b d1b7 f043 ffb6 bf22 57b7 b970 4e36
000000d0: d784 18b8 0137 4c36 26ff 48b7 e0ad 50b7
000000e0: 9ecf 13b8 e5a7 9c36 55c4 08b6 f006 b0b6
000000f0: ac49 2ab6 b357 2cb7 aab0 b1b7 0d12 33b6
00000100: 132e 91b6 b7af 97b7 fff2 e9b6 68ee 7d36
00000110: 5199 9bb7 3140 91b7 4c63 1a35 a39e 0ab5
00000120: 6f14 aab6 f68b 9035 e379 5036 77dc 9036
00000130: 1a72 86b7 e2d3 1fb7 c57e 16b8 b6b4 cd37
00000140: e988 22b7 079b 80b7 6c9d 53b6 41f8 26b7
00000150: 1195 8237 b6dc a837 87cc 9b35 924a 87b7
00000160: 6f23 da37 e995 04b7 2ef2 84b7 e756 04b7
00000170: dfe2 7ab7 d655 6eb4 6337 bfb7 589a 2fb7
00000180: fb1f a6b7 ac85 03b7 591a c8b7 f5de bcb7
00000190: 917d 8b34 2aaf 58b7 8c18 73b7 5f18 f837
000001a0: 14df 2fb7 95a2 fcb7 b28d d537 a8ec 8bb7
000001b0: f6d3 2eb7 4beb 0737 173b c2b7 85a1 2bb7
000001c0: b7eb 19b7 fdbd 8c37 564f 66b3 8b5d bcb6
000001d0: da97 c333 7af6 fc36 b57b dbb7 52d2 1238
000001e0: ad03 3437 1088 96b7 432c afb7 9269 7ab7
000001f0: 21de 40b7 2092 5bb7 64d8 b8b6 f1ed 14b7
8.302229e-06 -4.7197893e-05 -2.1596641e-05 -2.2453833e-05 -1.8005217e-05 -2.446968e-05 1.2526721e-05 -1.0132574e-05
5.3039166e-06 3.8361082e-07 -4.95521e-05 -1.77562e-05 1.3890379e-05 -1.2821909e-06 -4.2285137e-06 -1.4151278e-05
-8.2848703e-07 -1.0543401e-05 6.2650042e-06 2.3752069e-05 8.372931e-06 -1.7544353e-05 -9.462085e-06 3.226607e-05
-1.7014065e-05 -1.0248083e-06 2.4334411e-05 -2.615899e-05 2.201899e-05 -9.222018e-06 3.486097e-05 -2.9528608e-06
-1.2451077e-05 -1.1367111e-05 -3.1342697e-05 -9.8627e-06 -6.971969e-07 -1.5246731e-05 9.008147e-06 -1.0740651e-05
2.449284e-06 -1.2082075e-05 -1.8296594e-05 7.792352e-08 -2.2447739e-05 -6.093983e-06 -7.918834e-06 9.989781e-06
-2.4935143e-05 -7.607501e-06 -1.2823089e-05 3.0762005e-06 -3.636334e-05 3.0430385e-06 -1.1980335e-05 -1.24382495e-05
-3.524089e-05 4.668708e-06 -2.037986e-06 -5.2460164e-06 -2.5374857e-06 -1.0272418e-05 -2.118231e-05 -2.6683585e-06
-4.3267005e-06 -1.8082426e-05 -6.9722296e-06 3.7838709e-06 -1.8548833e-05 -1.7315238e-05 5.7513967e-07 -5.1639853e-07
-5.0687736e-06 1.076957e-06 3.1065363e-06 4.3172e-06 -1.6027177e-05 -9.526471e-06 -3.588085e-05 2.4522054e-05
-9.687829e-06 -1.533098e-05 -3.1533082e-06 -9.952172e-06 1.5566622e-05 2.0129937e-05 1.1607925e-06 -1.6127979e-05
2.6004125e-05 -7.902717e-06 -1.58484e-05 -7.888047e-06 -1.4953984e-05 -2.2196704e-07 -2.2794766e-05 -1.0466749e-05
-1.9803634e-05 -7.839331e-06 -2.3854127e-05 -2.2515169e-05 2.598213e-07 -1.2915387e-05 -1.4489644e-05 2.9575252e-05
-1.0482752e-05 -3.011645e-05 2.545756e-05 -1.6680293e-05 -1.0420559e-05 8.1014105e-06 -2.3154118e-05 -1.0230001e-05
-9.174392e-06 1.677777e-05 -5.3623204e-08 -5.6137264e-06 9.108017e-08 7.538879e-06 -2.616444e-05 3.500499e-05
1.0729692e-05 -1.7944752e-05 -2.0882237e-05 -1.4925741e-05 -1.149581e-05 -1.308744e-05 -5.5088185e-06 -8.8768875e-06

W2 f4 [128, 10]
00000000: ef5a 86bc 8310 49bc b547 8f39 8a81 c43b
00000010: a997 fe3c 2f1b 943c b0b6 c9bc 6bd7 10bc
00000020: 4049 123c 91ef 063d 9f5c 743b 8465 cd3c
00000030: edb2 a2bc b617 ae3b feb4 173d 1a67 20bd
00000040: 55a4 d2bb c84c 343c ef8d 29bc ac0c 0f39
00000050: a445 2f3a 1d64 543c b48d 2f3d a65b c73c
00000060: 4e24 99bc 1117 f1bc 50aa 5bbc 3a47 193d
00000070: 0639 86bc 68c8 9abc 50dd 8d3c 9a3c 94bc
00000080: 511c edbc 120c e13b eec1 8d3b 4577 e63b
00000090: 034d 28bc fa65 1c3b dc5b 753c e9e9 d73c
000000a0: ea60 b9bb af96 86bc 52d3 91bc c6ea 313c
000000b0: 8346 67bc 6f10 9d3c e47d dbbc 7838 0f3a
000000c0: 5655 b63c 7bfd 833c 4722 bf3c e8ed 81bb
000000d0: 82f8 b43c 3ed9 2cbd fafa 853c 9eaf 61bc
000000e0: 8da0 a5bb 1dc2 293c 2443 89bc fe66 9f3c
000000f0: 2706 d33b 4d4d dbbb 90d4 3dbd ef4e 0c3c
00000100: c1b3 0abd 4216 ce3c 3d3c a33c 4131 95bc
00000110: 707d 9f3b 67ac 1cbc ddb7 6bbc 9a34 173d
00000120: 5ec7 26b9 b9b5 aabb 5b7d 113d d998 8dbc
00000130: 0999 473c 5dcc 933b fc72 10bb 060f d6bc
00000140: 1ab0 0c3d 4b44 cdbb 2dcb 39bc d00c 4bbc
00000150: c8e9 7abb ad53 b23c bfe4 a43c 32ec 8d3c
00000160: 0ba6 0cbd 85bb 873b 6842 8ebc 8da9 4e3c
00000170: 6957 30bb 810a a3bc 17ac 38bc 4e32 b23c
00000180: 8d2e 9e3a 51ee 9dbc 6446 8fba 3db0 a73b
00000190: 5cf9 e93b 8ebf b9bc 27b6 4d3c 603f 503c
000001a0: 4ad8 63bc 9f0b bebc 78e2 01bc 1120 79bc
000001b0: daa4 c13c b2f4 4d3c 6119 b4b9 a2ea 86bb
000001c0: c3a2 db39 10d3 19bc 0243 e1bc 62e3 c5bc
000001d0: fbd3 8d3b e45c a83b fd6c a43b 0b0f 723c
000001e0: dc93 a93c 2541 30bc a078 f5bb 1162 08ba
000001f0: 0168 143c 9ff8 ce3c cb4b 45b9 5bcd a23c
00000200: cd5f 96ba 81d6 28bc cd2a 8d3c 4a18 943c
00000210: f4b9 1a3c cb66 f1bc 76f8 fdbb e52c acbb
00000220: d1b5 703c 70aa 8abc 61bc c5bc c46a aabc
00000230: 338a 1c3d 2339 863b 6527 353b aeac 263c
00000240: d0ed 853b 6599 bd3b b87e d939 a055 db3b
00000250: bc94 64bc f7a6 87bb bd52 bc39 5804 46bc
00000260: 158b 71ba fc11 2aba 8fd4 673c 7ef0 1b3c
00000270: a752 beba 2430 f6bb 6cb9 413c 9d37 b03c
00000280: ef8f b43a 7d5d 103d f563 cabb 994b 033c
00000290: a57e 2f3c 0229 043c 98fa 9f3b 9446 78bc
000002a0: c348 23bc 2987 febb 59ff 1abc cf53 7b3c
000002b0: 7a36 123c 868e ec3b 2787 373c f0ba 64bc
000002c0: 2886 f7bb e916 7ebc 5ebc 193c bfcb 1a3c
000002d0: 662b 8bbc ebf1 163c cf3f adbb b8aa 34bc
000002e0: 82dd 1b3c 503a ed3c 994e 83bc c476 a4bb
000002f0: 3847 a43a 14cf 593b 4f2b b43b 5f79 b6ba
00000300: d827 483c e81a 25bc 9326 3cbc 65dc e23c
00000310: a7f0 243c fba6 89bc aeea f93c d447 81bc
00000320: d136 c0bc 5eef a83c 3010 e3bc 8d01 903c
00000330: 25ac 23bb b058 733c f82e 5ebc c6aa 85bc
00000340: 9486 e7bb 55b3 9bbc 032c e83b b000 c9ba
00000350: 762e 223c c2f4 86b9 8f8e e9bc 0f81 c5bc
00000360: 4603 603c 0e78 83bb 4bae 403c 7055 2b3c
00000370: 65e0 873c de82 93bc ce88 a3ba 07a7 0f3a
00000380: 3067 a4bc a5a8 e13b 5145 5ebc 0852 923c
00000390: d215 babc 9b70 903b ab63 f1bb f3d6 b73c
000003a0: cca2 a53c f28d ab3c cf26 00bd a513 0a3d
000003b0: 087d 02bc f9e9 6d3c f03f 9cba 5938 19bd
000003c0: e1d9 82bc 6d1a 503c 145b 8dbb 4d37 a1bb
000003d0: 4d57 2d3d 49e8 83bc 5fb7 463a 99b2 653c
000003e0: 98d1 57bc b305 14bd 8ad8 03bc d51f d23b
000003f0: 4cdf 5dbc 97d1 6c3c 5ab1 b73c 80b3 963c
-0.016400782 -0.012272003 0.0002732851 0.0059968876 0.031078177 0.018079368 -0.024623245 -0.008840422
0.008928597 0.032943312 0.0037286652 0.02507282 -0.01986071 0.005312885 0.037037842 -0.039160825
-0.0064282813 0.011004634 -0.010348781 0.00013642263 0.00066860975 0.012963322 0.042859748 0.024335694
-0.01869407 -0.029429944 -0.013407305 0.037421443 -0.016384613 -0.01889439 0.017317444 -0.018095303
-0.028944166 0.006867894 0.0043260967 0.007033261 -0.010272267 0.0023864494 0.014975514 0.026356654
-0.005657305 -0.016429273 -0.01780096 0.010859197 -0.014115932 0.019172875 -0.026793428 0.00054634316
0.022257488 0.01611208 0.023331774 -0.003965128 0.022091154 -0.042199366 0.016355027 -0.013774781
-0.0050545395 0.010361222 -0.016755648 0.01945829 0.0064399424 -0.0066925646 -0.046345294 0.008563741
-0.033862833 0.025157098 0.019926185 -0.018211963 0.0048672482 -0.009562588 -0.014387098 0.0369154
-0.00015905264 -0.0052096513 0.03551994 -0.017284798 0.0121824825 0.004510446 -0.0022041192 -0.02613021
0.03434763 -0.0062642447 -0.011339945 -0.012393191 -0.0038286317 0.021768415 0.020128606 0.01732454
-0.03433804 0.004142227 -0.01736565 0.012613666 -0.002690757 -0.01990247 -0.011271498 0.021752503
0.0012068317 -0.019278677 -0.0010931012 0.005117445 0.0071403217 -0.022674348 0.0125556355 0.012710422
-0.013906548 -0.0231989 -0.0079275295 -0.015205399 0.023638178 0.012570547 -0.00034351184 -0.004117326
0.00041892202 -0.0093887 -0.027497772 -0.024156276 0.0043282486 0.0051380266 0.005017875 0.014774094
0.020700388 -0.010757719 -0.0074911863 -0.00052026013 0.009058 0.025265036 -0.00018815619 0.019873312
-0.0011472643 -0.010305048 0.017232323 0.018077988 0.009443749 -0.02946796 -0.007750566 -0.0052543753
0.014691786 -0.016926974 -0.024137678 -0.020802863 0.038217735 0.0040961667 0.002764189 0.010173006
0.0040871873 0.0057861083 0.00041483878 0.006693557 -0.013951477 -0.004139777 0.000359198 -0.012085997
-0.0009214145 -0.0006487665 0.014149799 0.009517787 -0.0014520482 -0.007513063 0.011823993 0.021510893
0.0013775806 0.035245407 -0.0061764666 0.008013629 0.010711347 0.008066418 0.004882168 -0.015153546
-0.009966078 -0.007767577 -0.009460294 0.015339806 0.008924121 0.0072191386 0.011201656 -0.013960585
-0.0075538345 -0.015508392 0.009383289 0.009447991 -0.016988467 0.009212951 -0.0052871476 -0.011027031
0.009513261 0.02895847 -0.01602869 -0.005019041 0.0012533432 0.0033235 0.005498327 -0.001392167
0.012216531 -0.010077216 -0.011483806 0.027692983 0.010067142 -0.016803255 0.030507412 -0.01578132
-0.023463638 0.020621952 -0.02771768 0.017578864 -0.0024974432 0.014852688 -0.013561003 -0.016316783
-0.0070656035 -0.01900641 0.0070853247 -0.0015335288 0.009898772 -0.0002574083 -0.02851036 -0.024109391
0.013672655 -0.0040121144 0.011760305 0.010457382 0.016586492 -0.018006738 -0.0012476684 0.0005479906
-0.020068735 0.006886559 -0.013566331 0.017861381 -0.022715483 0.004407955 -0.0073666177 0.022441363
0.02021923 0.020941708 -0.03128701 0.03371014 -0.00796438 0.014521115 -0.001192091 -0.037407253
-0.015973033 0.012701613 -0.004313836 -0.0049199224 0.042319585 -0.016101973 0.0007580425 0.014019632
-0.01317253 -0.036138248 -0.008047232 0.006412486 -0.013542008 0.014454267 0.022423435 0.01839614

b2 f4 [1, 10]
00000000: ec28 41b9 dd95 98ba 2b5a 45ba ea68 b0b9
00000010: 805e 013a aea0 123a 1876 28ba efe1 c1ba
00000020: bce0 393b d6bb 2f3a
-0.00018421159 -0.0011641342 -0.00075283897 -0.00033647503 0.0004935041 0.0005593401 -0.0006426289 -0.0014792065
0.0028362712 0.000670371
