checkpoints/model_20241207_175118.pth (torch, 409152 bytes, 4 tensors)

W1 f4 [784, 128]
00000000: bfbc 44bb 0aad 563b a88d 43bc e35f 6a3b
00000010: b072 f93a df66 99bb efc3 abb8 12c8 523c
00000020: fb9a 21bc ed20 95bc 0cbd 2c3b 8454 dc3b
00000030: 9c6e 7f3b cf4e d63a 869a 903b 92c5 37bb
00000040: 405d 96ba 876e ae3b 38a1 91bb 7a0c fcbb
00000050: c5f5 363c 7bf6 253c 6896 44b7 4275 f03b
00000060: 8739 af3a 2625 073c 714b 46bc 9d64 8a3b
00000070: 84f8 d43b 0b92 fabb 2139 85bc 04ed 93bc
00000080: 0839 cfbb d3ba 5dbc accf a03c 6bbb 263b
00000090: e548 60bc 111d 9f3b bc72 263b a650 5fba
000000a0: 3a53 24bb 64aa 423c a749 1a3a 4bfd e6bb
000000b0: e2ad 3e3c ac75 473b e2ca 33bc 73a4 673c
000000c0: 2d34 42bc d878 0bbc 1f36 df3b 0b46 6fbb
000000d0: 4ea7 bdbb 37de 50bb f1cf 09bc cce8 bdbb
000000e0: 193f 65bc 39b4 51bb 145e b13c a30f 1bbc
000000f0: 53a1 51b9 c9d4 bcb9 68c7 d93a 8242 d83b
00000100: a663 e13b 26e2 153b b768 8a3c 848f 0bbc
00000110: 55b7 c0bb 7384 d5bc 20d9 783c b8e4 153c
00000120: d9e4 90bc ba6b b7ba ae64 f6bb 67d5 333c
00000130: b934 f5bb e53b 563c 44e7 a43c 7c68 8ab9
00000140: 7cfd 03bc a071 f73b bd26 af3c d5ad fc3b
00000150: c7b0 02bb eb72 b5bb f527 83bc e2b8 acbb
00000160: 96d2 683c 44b2 79bb dd44 323c d324 303b
00000170: 48d4 253a ab22 0e3b 35dd f4bb e2f9 243c
00000180: 4949 cabb 3f31 9e3b ccfe 41bb ec4d f3ba
00000190: a543 25bc 7141 023b cf33 ec3b 2f42 a0bb
000001a0: 984c 463b f97f 8b3b 041d 5dbb f622 c33b
000001b0: e422 0c3c a50e b5bb 34a0 ffba 6c5e 4ebb
000001c0: de2d 00bc 7c01 cbbb aa00 8c3b d9ca 09b9
000001d0: a0e7 223b 6d97 0f3a 2072 b23a 7c16 493c
000001e0: 4c1f a8bb 04ae f1bb 8204 263c f2d6 b1bb
000001f0: 279d d038 f808 3abc 6694 e7ba decb 0fbc
00000200: 11a1 8ebb 16a8 473c 3b21 813c 2edf 6fbc
00000210: cd5d 0ebc 4ed8 583c 8e41 1d3c df9d e3bb
00000220: 0942 86bc 2c27 c93b 91c4 133c 62ae de3b
00000230: 944b c33c 3515 85bb 0840 273c b184 723c
00000240: 0c6c 403c fe40 99ba 0d2f 44bb 07bc 593c
00000250: 9591 0abb d6fe 12bb 9bba 5ebc 67f5 7bbb
00000260: d407 a1bc 9f24 613c 4739 18bc b91a 713c
00000270: aeff 51bc fb90 a4ba d43f 8dbc 93e1 aa3b
00000280: 7898 80bb b5b9 87ba 4c3c 07bb b8e5 16bc
00000290: 83e1 563c 0a1c 113c 02f1 00bb bc1f 1fba
000002a0: ab1d a5bb ccfd 04ba 8230 393b a8c1 c93b
000002b0: 2be2 d63c 5e06 bbbb 483c 98bc 7334 ab3b
000002c0: 3581 31bc dbb5 6a3b c666 8a3c adeb e73b
000002d0: 3d50 99bb 75c2 933c 62ca f63b ecc4 0fbc
000002e0: 946d fbba 63b9 a238 2b56 4d3c 3fd5 12ba
000002f0: 6641 0d3c 35ce 683c 020b bebc 4bc9 cebb
00000300: 8e72 9438 965b e0bc f2f1 76bc 0cdc 33bc
00000310: 6e6a abbb 0421 04bc 0b93 d4bb 60b8 30bb
00000320: ce1d 093c c407 32bb 41da 2bbc 67c8 2bbc
00000330: 088c 4c3b 1dc7 3e3c 46ae f0bc 2f63 39bc
00000340: ffb8 12bc 95ea 85bb c456 82b9 d142 3b3c
00000350: 5811 2abc 4e13 483c b658 ba3c 7748 933c
00000360: e215 a13b 5ad3 54bc 5bdc 613c af2e a83b
00000370: c9cf f03b d173 82bc c13c f2b9 7fa3 00bc
00000380: 7e63 a13c 40e2 1a3b 4277 a6bb 045e a73a
00000390: d40c 2dbc 2bb4 e8bb 69b8 093b 5e59 773c
000003a0: ebb6 81bc 87b6 363c c6f9 27bb 72e8 40bc
000003b0: 06f6 1abb 0765 cd3a 0ebd 9f3b 5d28 f2bb
000003c0: 2931 3bbc 3c6b b3b9 aa74 203c ffc6 bbbb
000003d0: 0f83 af3b 34f4 783b 68b7 92bc 11a1 183b
000003e0: 2c9e f8bb 1ce1 7e3c 31ff de3b 7034 383c
000003f0: 463e 85bc 8540 87bc b42a 94bc a42e 263c
-0.0030019728 0.0032756948 -0.011935629 0.003576272 0.0019031372 -0.0046814526 -8.190411e-05 0.012865083
-0.00986361 -0.018204177 0.0026357798 0.0067239422 0.003897584 0.0016350391 0.004412952 -0.0028041345
-0.0011471882 0.0053232345 -0.0044442676 -0.007691917 0.011166994 0.010129566 -1.171753e-05 0.007338197
0.0013368585 0.008248603 -0.012102948 0.00422342 0.006499352 -0.007646804 -0.016262593 -0.018057354
-0.0063239373 -0.013533312 0.019630276 0.00254413 -0.013689254 0.00485576 0.0025397977 -0.00085187925
-0.002507402 0.011881445 0.0005885609 -0.007049238 0.011638137 0.0030435128 -0.010973664 0.014138329
-0.01185326 -0.008512698 0.0068118717 -0.0036510255 -0.0057877665 -0.0031870732 -0.0084113935 -0.005795574
-0.013992094 -0.003199829 0.021651305 -0.009464177 -0.00019991891 -0.00036016692 0.0016615214 0.006599725
0.006878334 0.002287039 0.016895635 -0.0085181035 -0.00588123 -0.026064133 0.015188485 0.009148769
-0.017687248 -0.0013993897 -0.007519326 0.010976172 -0.0074830917 0.013075803 0.020129807 -0.00026399258
-0.008056041 0.007551387 0.021380777 0.007711152 -0.0019941793 -0.005537381 -0.016010264 -0.005271063
0.014210364 -0.003810064 0.010880676 0.0026877418 0.0006325883 0.0021688144 -0.007472659 0.010069342
-0.006173287 0.004827648 -0.0029601334 -0.0018562651 -0.0100869285 0.0019875432 0.0072083245 -0.004890702
0.0030258056 0.004257199 -0.0033739218 0.0059550954 0.00855324 -0.0055254274 -0.00195027 -0.0031489385
-0.007823436 -0.0061952453 0.00427254 -0.00013140905 0.0024857298 0.0005477581 0.0013614334 0.012273427
-0.005130684 -0.0073754806 0.010132911 -0.005427235 9.947485e-05 -0.011354677 -0.0017668128 -0.008776633
-0.0043526967 0.012186071 0.015762916 -0.0146406125 -0.008689356 0.013235165 0.009598149 -0.00694631
-0.01638891 0.006138703 0.009019033 0.0067956904 0.02383975 -0.004061366 0.010208137 0.014802144
0.01174451 -0.0011692343 -0.002993527 0.013289458 -0.0021143903 -0.0022429726 -0.013594295 -0.0038445832
-0.019657053 0.013741641 -0.009291 0.014715844 -0.012817306 -0.0012555415 -0.01724235 0.005214879
-0.0039244257 -0.0010355028 -0.0020635305 -0.009210043 0.01311529 0.008856783 -0.0019674902 -0.00060700974
-0.005038937 -0.0005073219 0.0028257673 0.006157119 0.026230892 -0.005707546 -0.018583432 0.0052247583
-0.010834028 0.003581396 0.01689471 0.0070776553 -0.0046787546 0.01803706 0.00753145 -0.008774977
-0.0019182437 7.759293e-05 0.012532751 -0.0005601234 0.008621549 0.01420932 -0.023198608 -0.006310617
7.0785274e-05 -0.027387422 -0.015072333 -0.010977756 -0.0052311933 -0.008064512 -0.0064872555 -0.0026965365
0.008368922 -0.0027165273 -0.0104890475 -0.010484791 0.0031211395 0.011644152 -0.029379975 -0.011315151
-0.008955239 -0.0040868022 -0.00024860178 0.0114295045 -0.010380112 0.012211634 0.022747379 0.01797889
0.0049159387 -0.012989843 0.013785447 0.0051325182 0.0073489887 -0.015924366 -0.00046203102 -0.0078514805
0.019700762 0.002363339 -0.0050801346 0.0012769108 -0.0105621405 -0.007101556 0.0021014458 0.01509699
-0.015834292 0.011151916 -0.0025631054 -0.011774169 -0.0023645177 0.0015670367 0.004874832 -0.0073900656
-0.011425295 -0.00034221436 0.00979344 -0.0057305093 0.0053561996 0.0037987353 -0.01790972 0.0023289362
-0.007587215 0.0155566 0.0068053235 0.011242971 -0.016265046 -0.016510257 -0.018086769 0.010142956

b1 f4 [1, 128]
00000000: 1635 69b7 02d0 3a37 64ed f0b6 c938 88b7
00000010: 6006 a2b7 efdd 24b7 f199 12b7 aeb6 cdb6
00000020: 7123 7136 17cb ebb6 c49b b9b7 14dd cf36
00000030: f809 33b7 cde1 02b7 7de5 2437 1da1 0938
00000040: 7ae1 08b7 a0b7 eb37 15d4 8db7 0b9d 02b7
00000050: 6406 3cb7 a400 73b6 2818 da36 3e7e 5c35
00000060: 1ff4 eeb6 604d 1db7 de8d 9537 9f83 08b7
00000070: 5480 79b3 fd30 50b7 c2f4 b3b7 88cd 92b6
00000080: 98de 03b7 3e57 13b8 2c12 93b7 8d54 0ab7
00000090: 14bf 2fb6 a001 3db7 a217 e8b5 1572 3c37
000000a0: 8d54 34b7 ee78 07b8 ad65 34b7 2bbb 3ab7
000000b0: 3ad9 b3b7 674b 9336 9d63 12b7 47fb 78b7
000000c0: 433c c8b6 023d 1436 b844 08b8 514d 4335
000000d0: 31d7 a9b6 09a3 bb37 88d7 2fb5 aaf8 4236
000000e0: f747 85b6 390f d0b6 1202 5933 165f 04b7
000000f0: 8f3b ca35 2b48 deb7 9cc4 d0b7 58d3 5eb7
00000100: 655f a7b7 a2f4 0bb6 fcd6 0eb7 c41c 46b6
00000110: e174 0937 f66a 00b7 2c06 b0b7 7142 0ab7
00000120: ca1a 9836 c1de e737 7cf6 cdb6 8a75 0337
00000130: 3e46 02b7 c5e2 02b8 cbb6 cbb5 34d8 4737
00000140: 25b1 34b7 fd3f 1237 329c 17b6 46fc ae36
00000150: 9bad 60b7 2cd9 cfb7 b20d 2cb7 c7be 08b8
00000160: 2225 8b37 7473 5e37 5c8e 25b5 5990 a437
00000170: ae8d 2035 9e8f c9b6 be2e ecb5 ae85 20b7
00000180: 7dfb 96b7 6c00 c437 8424 fab6 2a05 88b7
00000190: f5a7 2bb7 5bcf d2b6 de33 74b7 ef7c f935
000001a0: c4b4 27b7 b105 20b7 25d2 50b7 0a7e 4cb7
000001b0: 33b4 91b7 77ff 07b7 fd27 8cb7 24b5 84b4
000001c0: 6bde c8b6 ce32 11b7 cd9a edb7 0fcd 87b7
000001d0: bbaf a5b6 9caa 0d37 ec34 2a37 75a3 d435
000001e0: d446 48b7 b53e 82b7 1632 5cb7 22e1 f036
000001f0: 3684 10b6 d76c 4b37 0e10 1eb8 b2ff 83b7
-1.3900242e-05 1.11348945e-05 -7.1801933e-06 -1.6238906e-05 -1.9314873e-05 -9.826835e-06 -8.73812e-06 -6.130743e-06
3.5932428e-06 -7.0271885e-06 -2.2126253e-05 6.1948176e-06 -1.0671552e-05 -7.801177e-06 9.828594e-06 3.2813394e-05
-8.1587295e-06 2.809969e-05 -1.6907268e-05 -7.785168e-06 -1.1207161e-05 -3.6210195e-06 6.4997184e-06 8.2140093e-07
-7.121372e-06 -9.3759445e-06 1.7828246e-05 -8.136877e-06 -5.8091544e-08 -1.2409172e-05 -2.1452437e-05 -4.375066e-06
-7.860035e-06 -3.512878e-05 -1.7532228e-05 -8.245127e-06 -2.6188254e-06 -1.1265656e-05 -1.7292225e-06 1.1232235e-05
-1.0748522e-05 -3.2299133e-05 -1.0752509e-05 -1.1130042e-05 -2.1439617e-05 4.3897194e-06 -8.725471e-06 -1.4840457e-05
-5.96748e-06 2.208923e-06 -3.2488926e-05 7.275567e-07 -5.061644e-06 2.2368056e-05 -6.550622e-07 2.9052994e-06
-3.9720867e-06 -6.200655e-06 5.0526133e-08 -7.889952e-06 1.5067507e-06 -2.6498068e-05 -2.4887086e-05 -1.3281438e-05
-1.9952373e-05 -2.085501e-06 -8.5139145e-06 -2.9521043e-06 8.193049e-06 -7.654298e-06 -2.0983709e-05 -8.240911e-06
4.5330717e-06 2.7641074e-05 -6.1381706e-06 7.835575e-06 -7.764958e-06 -3.120561e-05 -1.5177878e-06 1.1911663e-05
-1.0770081e-05 8.717177e-06 -2.259167e-06 5.2149726e-06 -1.3391861e-05 -2.4777451e-05 -1.0255188e-05 -3.2602602e-05
1.6587383e-05 1.3259112e-05 -6.167445e-07 1.961754e-05 5.9810816e-07 -6.006986e-06 -1.7596974e-06 -9.567868e-06
-1.7998502e-05 2.3365217e-05 -7.4548316e-06 -1.6214868e-05 -1.02315e-05 -6.282627e-06 -1.455561e-05 1.8588306e-06
-9.996063e-06 -9.538068e-06 -1.2446694e-05 -1.2188693e-05 -1.7369259e-05 -8.106107e-06 -1.6707922e-05 -2.4718713e-07
-5.9863573e-06 -8.654502e-06 -2.8324686e-05 -1.6188742e-05 -4.937841e-06 8.443978e-06 1.0145111e-05 1.5842803e-06
-1.193742e-05 -1.5526408e-05 -1.3124683e-05 7.1787663e-06 -2.153463e-06 1.2125084e-05 -3.7685088e-05 -1.5735484e-05

W2 f4 [128, 10]
00000000: 2500 473b 9694 f4bb 24f0 94bc 2819 f93b
00000010: 2047 87bc 5e7a 9b3a ca01 d43b dda8 60bc
00000020: d22d 3cbc f578 3d3c 4a1e d6bc 4188 303b
00000030: 5f5a 293c 0099 2fbc 7b32 b8bc e399 da3c
00000040: 20fd e83c c947 83bc 5cd0 7bba a619 7e3a
00000050: 949d b9ba ddef 21bc 1758 dbbc 3869 e7b9
00000060: 0a56 02bc ebf0 703c 4ed2 553c 1bd4 07bb
00000070: 21c9 233b 1ea3 97bc 2853 e03b 5f73 233b
00000080: 5816 15bc be69 89bc c193 713c f361 16bc
00000090: 0de2 97bb fda6 f4bc e6a7 263c 0ce1 0fbc
000000a0: f0b9 923c 6b5d abbc 0c95 02bd 76f9 b2bc
000000b0: 6cb4 d23b f5f1 3ebb f77b c93c 3493 bc3b
000000c0: 7cfb 20bc 2555 823b 4230 19bd a7b7 ae3b
000000d0: 0c90 f33b 750b b73c 39a2 903c c1f3 043b
000000e0: 3995 5cbc 5223 353b cf00 8a3b 92bc 003c
000000f0: 3ce0 263c 4ba8 95bb 8a01 263d 62ed b33b
00000100: 1312 0bbc 64a6 07bc 26cb c5bb 131e 02bc
00000110: 6d9b 003c 60b4 1e3d e177 203c 1d54 d63a
00000120: b268 18bb 2b5e c73c 81c7 e9bb cb1e 853b
00000130: 0132 9cba e1af c53c dca3 b8ba 0a57 c7bb
00000140: ff03 753c 985f ccbb 12e3 8eba d244 28bb
00000150: 432a 8fbc 3780 c43a 692c 8ebb be1f 3fbb
00000160: 1a89 5e3c 1fe9 f3bb c7be b03b fb2a b43c
00000170: 6a4f 4ebc 7a08 a63c 5456 40bc ea84 d039
00000180: 4acc 873a 7589 acbc 23d1 e6b9 7d40 153c
00000190: 40a9 d83c 6cc2 1bbb d3e0 33ba f730 b2bb
000001a0: 2c41 b23a 8a2b 0a3c c14e fdbb 376b 8d3b
000001b0: 669f 9b3b 2259 a639 04a5 77bc 4a35 c03b
000001c0: aaab 00bc 779e 0b3d b63f a6bc 6668 3d3d
000001d0: 263f d7bc 10aa 24bb 25ce c1bc 2991 623c
000001e0: afbd 92bc 4028 a6bb 326f 29ba 51dc 77bb
000001f0: 9d67 8a3b f11d df3b 9d93 fe3c 13fb 633c
00000200: 0cc7 a23c 7d92 bbbc 7000 913c aadb c9bb
00000210: f848 6439 ea12 eebc bae7 88bc 388c 663c
00000220: b066 cc3c ab69 17bc 05b8 b63c ef07 debb
00000230: e6d6 c2bc f30a 8b3c a6e4 813c c046 c43c
00000240: f767 c3bc bb60 3bbc 73d5 91bc 4ab8 5abb
00000250: 206d 29bc b6ab 443c 3fab d0bc 9914 00bc
00000260: 97a6 ccbb af6f aaba 13fb 1bbd 4e32 353d
00000270: 6a3d b7bb da66 0a3d c3f3 223b a656 3cbb
00000280: 3051 92bc bb09 be3c 40cf 773c 2c3a 66bc
00000290: 39b4 1d3c 8e30 853b 6734 9a3b 8db7 d33b
000002a0: 63e3 21bc 796e 003a 53a3 123c 9586 8dbb
000002b0: 9b8d 77bc 5f99 a93c 28fd 81bc f5a7 5abb
000002c0: 5b68 40bd 409e 873b ed09 613c 8959 193d
000002d0: c5d1 72bc 4e3a 4a3c afb2 1f3d e4da ef3c
000002e0: 35ef 0abd b2b0 1c3c 3237 6ebc b891 333d
000002f0: 22f4 b0bb e6a6 1cbd 12ed edba 91ed 2d3c
00000300: 3303 c6bb eca5 01bc 43c7 783b de7b 36bc
00000310: 269a ae3c 4bb7 2c3c 972a 94bc 6a4a 75bb
00000320: 37a9 5fbc 7da3 893c 6743 a3bc c8ba 94bc
00000330: 3f42 9f3c 79e1 2bbc 64b3 dcbc 5fa4 233b
00000340: 440e 68bc 9d51 20ba 88f3 84bc d1f9 1f3b
00000350: b9fc 1f3c 1225 463c a7d3 30bd 679d 2bbc
00000360: 4687 8db9 0a84 383c a0cd 403c ad7c 71bb
00000370: 4f27 08bb d858 cdbc 8382 69bc f1fb b43c
00000380: ddba ffbb 3ed6 c43c 71d1 feba 5c47 bc3c
00000390: aa0d 4bbc b79b 873b 663a c1bc f818 3f3c
000003a0: af3d b23b 998a 003d 4124 e8bb de07 a43c
000003b0: 4b8b 573c b247 bcbc 053b 7f3b acf6 4abc
000003c0: 4260 b8ba ca4b 0cbc 8a3f a2bc ec7f 34bd
000003d0: c33c 0e3d 9be9 bcbc b9a6 70ba e09b b43c
000003e0: 42d5 63bc e6f3 cb3b c4cf 073c 913f cfbc
000003f0: f05c 803c 46e9 f03b 339d ca3a 59b7 7ebb
0.0030365076 -0.007464002 -0.018180914 0.007601876 -0.016513407 0.001186203 0.00646994 -0.013712135
-0.011485534 0.011564483 -0.02613749 0.0026936682 0.010336488 -0.01071763 -0.022485008 0.026684707
0.028441012 -0.01602544 -0.0009605938 0.0009693153 -0.0014161342 -0.009883848 -0.026775403 -0.00044138147
-0.007955084 0.014705877 0.013050629 -0.002072579 0.0024991708 -0.018510398 0.0068458505 0.0024940593
-0.009099565 -0.016774055 0.0147447 -0.009178626 -0.0046351016 -0.029864782 0.010171866 -0.008781683
0.017910928 -0.020918569 -0.031880423 -0.021847468 0.0064301994 -0.0029135917 0.024595244 0.0057548527
-0.009825584 0.003977435 -0.037399538 0.0053319517 0.007432943 0.02234433 0.017655479 0.002028689
-0.013463312 0.002763946 0.004211522 0.007857459 0.010185298 -0.004567181 0.04052881 0.0054909447
-0.008488196 -0.008279417 -0.00603618 -0.007941741 0.007849556 0.038746238 0.009794206 0.0016351972
-0.0023255763 0.024336895 -0.0071343784 0.0040625087 -0.0011916758 0.024131717 -0.001408692 -0.006083374
0.014954566 -0.0062369816 -0.0010901412 -0.0025675786 -0.017476207 0.0014991824 -0.00433879 -0.0029163207
0.013582492 -0.0074435617 0.005393836 0.021993151 -0.012592176 0.020267714 -0.011739332 0.0003977188
0.0010360566 -0.021061638 -0.00044024838 0.0091096135 0.026447892 -0.0023767008 -0.00068618095 -0.005437966
0.0013599745 0.008433232 -0.0077303355 0.0043157595 0.0047492264 0.00031728396 -0.015115026 0.0058657276
-0.007853428 0.03408667 -0.020294052 0.04624214 -0.026275229 -0.002512578 -0.023657868 0.013828554
-0.017912714 -0.005070716 -0.0006463408 -0.0037820528 0.0042237774 0.006808989 0.031076247 0.013914841
0.019870304 -0.022897 0.017700404 -0.006160219 0.00021770957 -0.029061753 -0.016712058 0.014071517
0.024951309 -0.009241502 0.022304544 -0.006775848 -0.023784112 0.016972994 0.015856098 0.023959517
-0.023853285 -0.011436637 -0.017801976 -0.0033374005 -0.010340959 0.01200383 -0.025472282 -0.007817411
-0.006245445 -0.0013003255 -0.03808124 0.044237427 -0.005592038 0.033789493 0.0024864532 -0.002873817
-0.017860979 0.023198 0.015125096 -0.014051955 0.009625488 0.004064626 0.004705954 0.00646109
-0.009880873 0.0004899274 0.008950072 -0.004319022 -0.015109445 0.020703016 -0.015867785 -0.003336427
-0.04697452 0.004138738 0.013735277 0.037438903 -0.014820521 0.0123430025 0.038988765 0.02927918
-0.03391953 0.009563612 -0.014539527 0.04384014 -0.0054001966 -0.038245104 -0.0018152317 0.010615722
-0.006042862 -0.007913094 0.0037960566 -0.011137931 0.021313738 0.010541747 -0.018086715 -0.0037428387
-0.013651184 0.01680159 -0.0199296 -0.01815547 0.019440768 -0.010490769 -0.026941009 0.00249698
-0.014163557 -0.0006115677 -0.016229406 0.0024410377 0.009764844 0.012093799 -0.043170597 -0.010474539
-0.00026994402 0.011261949 0.011767775 -0.0036847994 -0.0020775383 -0.025066778 -0.014252308 0.022092791
-0.0078042583 0.02402794 -0.001944108 0.022983246 -0.0123933945 0.0041384357 -0.023587417 0.011663668
0.005439482 0.031382177 -0.0070844 0.020023283 0.013155769 -0.022983406 0.003894509 -0.012387913
-0.0014066773 -0.008562991 -0.019805688 -0.04406731 0.034725916 -0.02306061 -0.0009180117 0.022046983
-0.013905825 0.0062241433 0.008289281 -0.025298866 0.015669316 0.007352027 0.0015458226 -0.0038866608

b2 f4 [1, 10]
00000000: dcbb d2b9 6392 8cba fbe7 5939 7e14 b439
00000010: f91a 5fba 88bd 1bba 64f5 39ba b1cd 7dba
00000020: f4e9 333b b678 aa3a
-0.00040194287 -0.0010724779 0.00020781152 0.00034347543 -0.0008510794 -0.0005941023 -0.0007093756 -0.00096818345
0.002745268 0.0013005945
