checkpoints/model.pth (torch, 408832 bytes, 4 tensors)

W1 f4 [784, 128]
000000 2b 76 ea bb e3 0e 02 bb e6 36 78 bb 50 35 5c bc
       -0.0071552 -0.00198453 -0.003787452 -0.013440445
000010 61 3e 34 bc 1b ad 33 3b bd 91 1c b9 e7 50 3d 3c
       -0.0110012 0.0027416411 -0.00014931611 0.011554933
000020 82 7a 83 bb 08 d0 78 3c c9 66 38 3c 1c 00 e0 3a
       -0.004012407 0.015186317 0.011254975 0.0017089876
000030 ad 79 1e bb 79 84 92 3c 14 17 99 bc d1 a1 ca 3a
       -0.002418141 0.017885434 -0.018687762 0.0015459602
000040 b7 7f 1b 3b e4 ad 8d 3b 9a df ee bb 5c ba 5e 3a
       0.0023727247 0.004323708 -0.007289839 0.00084963976
000050 4c e4 b0 3c 84 5e fe bb 91 b5 85 3b b3 fe c4 ba
       0.021593235 -0.007762732 0.0040804823 -0.001502952
000060 b5 cd 0f 3b ea 28 77 bb cf 7e 02 bb 4e 10 03 3b
       0.002194268 -0.0037713596 -0.001991201 0.0019998732
000070 0e df 84 3c d5 8e 76 bc 94 b8 64 3c 86 3f 62 3c
       0.016219642 -0.015048702 0.0139600225 0.0138090905
000080 0b fe ed ba 9f d1 97 bb c8 c6 bc 3b 03 9d 91 3a
       -0.0018157376 -0.004633143 0.0057610013 0.0011109415
000090 1b 34 99 bb 6c da 63 3c 58 7d 0c bc 1c e0 1b bc
       -0.004675401 0.013907056 -0.008574806 -0.009513881
0000a0 5e 28 1b 3c e7 56 a4 3b a1 12 ba bb 46 0c 94 bc
       0.0094700735 0.0050152424 -0.0056784903 -0.018072259
0000b0 d6 8f 34 bb 5f fd 25 3c c8 b7 88 bb f3 0e b4 3c
       -0.0027551553 0.010131209 -0.004172299 0.021979785
0000c0 ab 44 cf bb 24 0d a5 3a 9a 12 36 3c f7 c7 9e bb
       -0.0063253245 0.0012592417 0.011112833 -0.004845615
0000d0 71 14 cf 3a e8 83 8a 3c 97 81 ea ba b1 38 1a bb
       0.0015798939 0.0169086 -0.0017891404 -0.0023532326
0000e0 c2 5a 7b bb 74 23 c9 bb 0f 22 e4 38 7a 86 c4 bb
       -0.0038353656 -0.0061382595 0.00010878231 -0.005997476
0000f0 51 c3 00 bc cb 91 54 3c 3d e8 c5 bb fa 46 80 bb
       -0.007859067 0.012974213 -0.006039648 -0.003914711
000100 1c 68 71 3c e2 a7 b1 bb b3 bd 54 3b 23 bc 15 3c
       0.014734294 -0.0054216245 0.0032461702 0.009139094
000110 04 8a 99 3a 90 97 f3 3b 10 1f 96 3c d2 e8 29 3b
       0.0011714105 0.007433839 0.018325359 0.0025926125
000120 8f 0f b2 bb be 63 2b 3c 30 b2 1c bc 66 bd cd 3b
       -0.0054339836 0.010460792 -0.009563968 0.0062786816
000130 1d d2 4a 3b 8e 05 8b 3b 8b c2 fd 3b 85 bd 16 bc
       0.0030947991 0.0042426055 0.0077441386 -0.009200458
000140 58 d3 81 3c cb 4a d5 39 be 47 eb 3b 76 19 a4 bb
       0.015847847 0.0004068225 0.007180183 -0.005007918
000150 d4 38 e8 3b f9 4d 63 bb cf cc 75 ba f3 9e 10 3c
       0.0070868526 -0.0034683926 -0.0009376527 0.008826959
000160 11 c6 40 3b 3a fb b5 3c 54 d1 63 3c ad fc b2 3b
       0.0029414932 0.02221452 0.013904888 0.00546225
000170 e3 4a 48 3c 2b 3f 39 ba 7a f9 8a bb 4e 46 a4 bb
       0.012224886 -0.00070666027 -0.0042411657 -0.005013264
000180 b1 71 01 3b 98 c0 ee bb 6a 3d e2 3a 09 f0 45 3b
       0.0019751603 -0.0072861426 0.0017260734 0.0030202887
000190 c5 55 fc bb 6e 18 e8 b9 c5 a6 21 bc dc e3 86 bb
       -0.007700654 -0.0004426869 -0.009866421 -0.0041165184
0001a0 31 2a bd bc 62 62 28 bc d8 ec 85 bb 14 c9 4c 3c
       -0.023091407 -0.010277363 -0.004087072 0.012499113
0001b0 0f 8c 0c 3c 99 0f a1 bb 4d 80 12 3c fb 29 8b 3b
       0.008578314 -0.0049151895 0.008941722 0.004246948
0001c0 b6 97 d2 bb 82 95 ff bb db 97 12 bc bb a5 24 bb
       -0.0064267768 -0.007799805 -0.008947338 -0.0025123197
0001d0 5b f4 cc bb d8 c6 8b 3c d6 ef 4a bc a5 9f 9e 3b
       -0.0062547154 0.01706259 -0.012386283 0.0048408085
0001e0 75 48 a5 bb 6d 18 f0 3b ce 96 52 bc fc a6 8b bb
       -0.005044038 0.0073271305 -0.012853337 -0.0042618494
0001f0 32 9e 0c bc fc f4 4c bc 72 a7 4a 3c 24 fe b3 39
       -0.008582639 -0.012509581 0.012369024 0.0003433089
000200 23 48 97 3c d4 dd 9b 3b ec f4 7d 3c df 67 32 bc
       0.018467015 0.0047566686 0.015500288 -0.010889023
000210 a8 02 57 3b 12 6c 42 bc 6a 6c 45 3c a2 17 5d bc
       0.003280798 -0.011866586 0.012049774 -0.013494404
000220 a6 3b b5 bb 84 8a 54 bb c7 1e 40 bb 96 0a d5 ba
       -0.0055307923 -0.0032431195 -0.002931522 -0.0016253765
000230 0a 1a e7 bc 55 b6 4d 3c 67 44 cf 3b ef 83 a8 bb
       -0.028210659 0.012555678 0.006325293 -0.005142681
000240 e7 f6 c8 3b 65 d2 8d ba cd d8 fa 3b 78 b7 62 bc
       0.0061329487 -0.0010820149 0.007655239 -0.013837688
000250 93 ee 2f bc d9 fa 50 bc 6a cb c3 3c 49 cb 58 bc
       -0.010738033 -0.012755119 0.023900706 -0.013232061
000260 d8 c1 46 3a 6b 33 4e bc b1 ae f3 3b 87 b1 43 3c
       0.00075819856 -0.012585501 0.0074365963 0.011944181
000270 cb 74 4f 3c 9a 77 4a 3c 61 12 37 3c ac 6e b8 3b
       0.012662123 0.012357617 0.0111738155 0.0056284275
000280 9c e6 06 3a e3 19 84 3c f9 4f f6 bc 8d a1 4d bc
       0.0005146058 0.016125625 -0.03006743 -0.012550724
000290 ae 8d 3e 3c 49 91 5f 3b c1 4b 84 bc 75 8c f9 ba
       0.011630459 0.0034113696 -0.016149404 -0.0019039052
0002a0 13 7c ba 3c d4 bb e7 3b 76 b0 07 3c d1 f3 dc bb
       0.022764241 0.0070719514 0.008281818 -0.0067429324
0002b0 e9 5d 14 bc 26 15 95 3c e3 ae 70 3b bb 03 ad 3c
       -0.009055593 0.01819856 0.0036725334 0.021119943
0002c0 11 a9 17 3c 29 d1 d4 3b 8c 33 f1 bb b3 50 87 bb
       0.009256617 0.0064946604 -0.007360881 -0.004129493
0002d0 23 7c 5b bb b0 f1 56 bc 24 f1 5a bc e0 01 34 3c
       -0.003349074 -0.013119146 -0.0133631565 0.010986775
0002e0 54 62 71 3b d7 30 2d 3b 72 ca 24 bc c2 a7 2d bc
       0.003683229 0.0026426816 -0.010058032 -0.010599079
0002f0 c5 cf f6 3b a3 64 f2 3c 02 8d 55 3c 62 2c 73 3a
       0.0075320923 0.029589003 0.013034107 0.0009276328
000300 ee 88 cc bb 53 b5 4a bb be c1 03 3b 3a 02 38 bb
       -0.006241909 -0.0030930832 0.0020104493 -0.00280775
000310 bc 74 e4 39 89 94 5d bc 6b 3d 50 bc 0a 89 0d 3c
       0.00043574523 -0.013524183 -0.012709956 0.00863863
000320 c2 c6 26 3c c2 e2 94 3c fd dc 47 3b 80 68 0f 3b
       0.0101792235 0.018174533 0.003049671 0.0021882355
000330 66 b3 55 3c 6f d6 ef bb 12 ff f2 3b d9 dc e3 3b
       0.01304326 -0.0073192636 0.0074156607 0.0069538173
000340 05 cf 39 3b b0 a7 45 bb b4 b0 aa bb d6 d7 de bb
       0.0028352153 -0.0030159764 -0.005209053 -0.006800632
000350 11 ef 45 3c 55 04 4f 3a 65 1f c9 3b 75 da 46 3a
       0.012080924 0.0007897069 0.0061377757 0.0007585653
000360 dc ce 0e 3c f8 55 5e 3b ee 1a 80 bc 4f 23 17 bc
       0.008716311 0.0033925753 -0.015637841 -0.009224727
000370 63 1e b9 3b aa b6 81 3c 80 c4 fd 3a d8 42 34 bc
       0.0056493743 0.015834171 0.001936093 -0.011002265
000380 91 12 a7 bb 3c e4 88 3c ff 57 93 3b 5b 43 e0 3b
       -0.005098649 0.016710393 0.004496574 0.006843967
000390 1d 0d e4 bb 88 36 bf bc 4e c2 4e 3c 1e aa 30 bb
       -0.006959571 -0.023341432 0.012619568 -0.0026956866
0003a0 9e 75 06 3c 5c dd 83 3b 29 2e 1b 3b 47 3e d2 3a
       0.008206753 0.004024191 0.0023678637 0.0016040289
0003b0 60 a8 6a 3b 6d c8 87 3c 6c 6f 63 bb a7 30 a1 3b
       0.0035805926 0.016575063 -0.0034703864 0.00491913
0003c0 a3 14 4b bc 6b c9 04 bc 0f 82 97 3c 72 ae 8c 3b
       -0.012395057 -0.008104662 0.018494634 0.0042932564
0003d0 82 22 5b bb 04 19 30 3b 84 ea 0d 3b c7 e3 d1 bc
       -0.0033437316 0.002687038 0.0021654675 -0.025621308
0003e0 f8 dc da 3b 7a 17 51 bc 8a 0f c7 bb bf 20 44 bc
       0.0066791736 -0.012761945 -0.0060748504 -0.011970698
0003f0 6f 93 0b 3c ef bd 97 3c 80 d1 9b ba 5d 03 e7 3b
       0.008519038 0.018523185 -0.0011887997 0.0070499615

b1 f4 [1, 128]
000000 d9 6f 63 b7 83 ef 06 b8 ae 26 0d b6 cf 70 9d 36
       -1.3556296e-05 -3.2171152e-05 -2.1033152e-06 4.6920973e-06
000010 da 6f fd b6 6f 86 03 b8 68 ec 49 38 b4 d0 1a b7
       -7.553009e-06 -3.1358035e-05 4.8142305e-05 -9.227708e-06
000020 ae 6e 05 b7 a1 18 9b b7 8d d4 30 b8 d2 2c ef b6
       -7.953187e-06 -1.8488909e-05 -4.2159623e-05 -7.127973e-06
000030 99 5a fa 37 13 6a 2f b7 de ca c8 b6 f0 6e d9 b6
       2.984451e-05 -1.045551e-05 -5.9840813e-06 -6.480019e-06
000040 91 58 6b 37 fe be 92 37 88 fb 74 b7 02 60 61 b7
       1.40277125e-05 1.7493494e-05 -1.46020975e-05 -1.3433399e-05
000050 9d 60 ab b7 b0 d7 0e 37 09 8f 31 b5 34 56 09 b6
       -2.0429778e-05 8.514078e-06 -6.614578e-07 -2.0464768e-06
000060 42 4e 9e b6 51 a1 af b7 1c 18 38 b8 f7 c3 a1 b6
       -4.7178773e-06 -2.0936744e-05 -4.3891472e-05 -4.820987e-06
000070 ab 1c 2b b6 a8 e0 4f b8 fc 37 14 b7 ae 6c 35 b7
       -2.5497673e-06 -4.9561873e-05 -8.834522e-06 -1.0813745e-05
000080 0e 40 6d b7 e3 c7 c9 36 33 f2 2b b7 30 04 a3 b7
       -1.4141215e-05 6.0135367e-06 -1.0248786e-05 -1.9433064e-05
000090 0d bb 34 b7 11 23 91 b7 36 11 d3 37 e0 58 cf b6
       -1.0772387e-05 -1.7301676e-05 2.5161175e-05 -6.179427e-06
0000a0 9f 42 a4 b7 4e 46 9f b6 0a 36 65 b7 e8 26 15 b7
       -1.9581346e-05 -4.746754e-06 -1.3662046e-05 -8.890151e-06
0000b0 4a 4c 87 37 8e d3 a5 36 a2 98 05 b7 60 73 38 38
       1.6128779e-05 4.9420114e-06 -7.962955e-06 4.397647e-05
0000c0 6f 4d d1 36 23 30 c3 b7 b3 24 8c 37 5d b0 0e 36
       6.2377e-06 -2.3268227e-05 1.670639e-05 2.1262306e-06
0000d0 95 8c a8 36 42 ee ce b7 52 eb c2 35 86 4a a6 b7
       5.023156e-06 -2.4668061e-05 1.4522614e-06 -1.9823445e-05
0000e0 32 f9 ab 37 34 f6 18 b7 d6 7e 7e b4 20 ac 15 b8
       2.050083e-05 -9.11723e-06 -2.3701736e-07 -3.5684672e-05
0000f0 2e 4a e0 b7 65 ba 1f 36 37 83 12 b7 5d a9 fc b7
       -2.6737423e-05 2.3801342e-06 -8.732829e-06 -3.0119607e-05
000100 da 18 00 b8 25 62 4a b7 fe 49 86 b7 be 39 a2 37
       -3.0540723e-05 -1.2062989e-05 -1.60085e-05 1.9338793e-05
000110 4b 44 2a b7 78 19 c5 b6 1b 30 79 b8 af 20 94 37
       -1.014869e-05 -5.8740225e-06 -5.9411028e-05 1.7658194e-05
000120 4c d0 1e b8 0b 23 1b 38 96 28 8c 37 58 b1 6e b7
       -3.7864127e-05 3.6987516e-05 1.67082e-05 -1.42271965e-05
000130 1c 93 25 b8 e3 c9 e1 37 1f 8d 97 b7 ef 8a ee 36
       -3.9476072e-05 2.6916101e-05 -1.8066317e-05 7.1091267e-06
000140 1c d7 b7 b6 cd 33 6e 37 d8 18 b3 b6 26 f2 cd 37
       -5.478867e-06 1.4197966e-05 -5.337508e-06 2.4550664e-05
000150 e9 54 63 b6 35 3e 9d b7 84 ea 54 36 68 42 86 36
       -3.387506e-06 -1.8744826e-05 3.1726968e-06 4.001242e-06
000160 2a 46 5b b8 78 45 3f b8 56 4f 48 b5 ef 71 02 b7
       -5.2279014e-05 -4.5602646e-05 -7.4621255e-07 -7.775131e-06
000170 e1 34 4f 38 33 ea 7f b7 c3 66 8a b6 ac 4d c0 35
       4.9401893e-05 -1.5253713e-05 -4.1246835e-06 1.432772e-06
000180 19 4d 7a b7 23 d5 9c b7 41 fe cc b7 34 b2 bc b6
       -1.4919112e-05 -1.8695899e-05 -2.4437091e-05 -5.623582e-06
000190 ca dc 9d 37 21 ad 9b b6 a3 c1 06 b7 dc 51 5f b7
       1.8818671e-05 -4.639515e-06 -8.032107e-06 -1.3310895e-05
0001a0 0c fb 7a 37 be 06 cd b6 86 69 36 36 35 a9 32 37
       1.4959613e-05 -6.110261e-06 2.7181536e-06 1.0649023e-05
0001b0 be 71 92 b7 a5 19 50 36 59 ab df 37 07 b0 6f b7
       -1.7457522e-05 3.1009342e-06 2.6663462e-05 -1.4286495e-05
0001c0 f6 9c bb b6 48 98 f7 b6 a4 d2 a1 b7 93 ff f1 b6
       -5.591307e-06 -7.3789015e-06 -1.9290783e-05 -7.2121125e-06
0001d0 1f 44 95 b5 6d 72 83 b7 48 e1 7a 34 f7 16 55 38
       -1.1121191e-06 -1.56697e-05 2.3365021e-07 5.0804545e-05
0001e0 f6 d2 ad b7 13 40 c0 b7 6b c8 4a b7 b7 d1 90 b6
       -2.0721443e-05 -2.291802e-05 -1.2086802e-05 -4.3159484e-06
0001f0 c9 35 cc b6 d8 5f e1 36 35 46 81 b7 f9 94 65 b6
       -6.085935e-06 6.71668e-06 -1.5410691e-05 -3.4210373e-06

W2 f4 [128, 10]
000000 9d d6 ea bc b7 6f c2 3a 44 0d 2e 3d 04 8b 04 3c
       -0.028666789 0.0014834319 0.04249312 0.0080897845
000010 7c c6 9e bc 3e b7 74 3c 94 db 99 bc 68 66 3e 3d
       -0.019381754 0.0149362665 -0.01878146 0.04648438
000020 38 0d f4 bb 13 f5 7f bd 5d 30 cf 3c 46 56 22 bc
       -0.007447865 -0.06248958 0.025291616 -0.0099082645
000030 04 c7 fd bb 7e 5f 8d 3c 81 f6 01 3c 71 9e fe 3b
       -0.007744672 0.017257448 0.007932306 0.0077703525
000040 10 df d6 39 f3 f9 33 bd 5a 4a 2d 3c db 5b dc bc
       0.00040983455 -0.043939542 0.010576809 -0.026899269
000050 62 95 75 39 f6 dd 9d bc d5 c7 82 bb ee 34 c5 3b
       0.0002342067 -0.019270878 -0.003991107 0.0060182726
000060 9a 98 12 3c 15 54 62 3c 36 fd 69 bc f6 63 7d 3c
       0.008947516 0.013813992 -0.014281562 0.015465727
000070 c0 37 28 3c bb 5c d3 3b 21 71 d3 3c 03 cc 28 bb
       0.010267198 0.0064502633 0.02581078 -0.0025756366
000080 ac 29 d7 3c 52 f4 14 3c 7e 84 70 bd b4 03 a0 3b
       0.026264988 0.009091454 -0.058720104 0.004883254
000090 5c 80 0d bd 91 81 3d 3d 37 e6 dd 3a 85 50 4a 3c
       -0.03454624 0.046266142 0.0016929571 0.012348299
0000a0 2a 03 c7 ba 29 d0 52 bc 4c 78 e0 3b ef c8 e0 bc
       -0.0015183438 -0.012867012 0.006850278 -0.027439563
0000b0 ed bf 09 3b 8b 55 4c 3c 21 09 e8 bc ef 68 c6 3a
       0.0021018938 0.012471567 -0.028324666 0.0015137474
0000c0 3f 4d 87 3c 0a ee 85 bc 9d 79 6c bc 63 0f 02 bb
       0.016516326 -0.016348857 -0.014433292 -0.0019845597
0000d0 74 3f a9 bc fc 08 26 3b 4a 72 00 3d 37 48 ab bc
       -0.02066014 0.0025334945 0.031358995 -0.020908458
0000e0 93 21 09 3d 01 19 9a 3c cc a5 88 3b fa 8d 20 bc
       0.033479284 0.01881075 0.004170155 -0.009799475
0000f0 70 ec bc bc ba b0 7b bb 7e 5e 08 3d 4a 67 4a 3c
       -0.023061961 -0.0038404898 0.03329324 0.012353728
000100 b7 19 21 3d 98 bb 43 3d ff e5 2f bd aa 04 81 3c
       0.039331164 0.047786325 -0.04294395 0.015749294
000110 09 c8 df bb 6e ae 87 3c 55 f1 76 bc 61 3e 8d bb
       -0.006829266 0.016562667 -0.0150721865 -0.0043104147
000120 10 f3 b1 bc 75 00 21 3d 44 b3 af bc 3e c3 78 3c
       -0.021722347 0.039307076 -0.021447785 0.015183268
000130 71 53 51 bb 42 3c c1 3c da 50 96 bb 54 40 fa bc
       -0.0031940604 0.023588303 -0.004587275 -0.030548252
000140 f1 5f 33 bb f0 c8 41 3c 51 cd e0 3c f2 1d 49 3d
       -0.0027370418 0.011827692 0.027441652 0.049100824
000150 13 10 be 3b 64 24 74 bc 2c 03 e3 bc 32 45 45 b9
       0.005800256 -0.014901254 -0.027711473 -0.00018813161
000160 b9 a4 45 bc ab ef 1e bc 35 7a eb 3c 1c e3 0f bc
       -0.012063199 -0.009700696 0.028744796 -0.008782174
000170 2a fa 67 3c 05 12 05 3c 79 be 84 3b 49 13 4a bd
       0.014158765 0.008121972 0.0040510264 -0.049334798
000180 ef c0 dc bc e7 2c f8 3c 2e 79 01 bc 97 30 79 3a
       -0.026947467 0.030294849 -0.007902427 0.00095058366
000190 71 18 39 3d 27 21 06 bc 0f 7d e0 3c 4b c7 2f 3c
       0.045189325 -0.008186615 0.027403383 0.0107286675
0001a0 d1 86 20 bd bb 6e 8f bc 93 bc f6 bc 3f 9e 22 3c
       -0.03919107 -0.017508855 -0.030119216 0.009925424
0001b0 07 ea 01 3c 8a 55 1f 3c 31 37 15 bc 82 3e b1 bc
       0.007929332 0.009724984 -0.009107397 -0.021636251
0001c0 35 33 1f 3d b7 2e b3 3b e4 5e cd 39 b8 82 4f bc
       0.038867194 0.0054682153 0.00039171346 -0.012665443
0001d0 54 0e a4 3c d6 68 ad 3b ae f3 ba 3c 62 10 96 bc
       0.020026363 0.0052920384 0.022821274 -0.018318359
0001e0 68 88 96 3c 44 71 0b 3b ff 55 0b bd c3 a3 15 bb
       0.01837559 0.0021277228 -0.03401756 -0.0022833205
0001f0 8e 24 20 3d b6 aa 47 bc bc 2c 33 bc 54 3d be 3c
       0.03909736 -0.012186697 -0.0109359585 0.023222603
000200 1f 0f 06 bd 08 7f 27 3d 22 ee 9b 3b 65 95 fb 3c
       -0.032729264 0.04089263 0.0047586123 0.030710885
000210 ca b0 24 3c dc 9b e2 3b a7 8a 2e bb 7c cb 74 bc
       0.010051915 0.0069155525 -0.0026632936 -0.014941093
000220 5c 96 8b 3c 02 92 7d 3c cc f5 87 bc 07 52 6a bb
       0.01703947 0.0154767055 -0.016596697 -0.0035754459
000230 78 19 bb 3c 46 02 7d bc b5 95 57 bb 0d b0 bc 3b
       0.022839293 -0.015442437 -0.0032895629 0.0057582916
000240 89 8f 2b 3b 32 0c 95 bc 11 cc f1 3a d9 73 26 3d
       0.0026178083 -0.018194292 0.0018447657 0.040637825
000250 6f aa 54 bc 33 05 1a bc 8c e6 76 bc 99 ca 26 bc
       -0.012980088 -0.009400654 -0.015069615 -0.010180139
000260 e0 6b dc ba 43 77 72 3b f9 34 70 bc 70 09 03 3c
       -0.0016816817 0.0036997355 -0.014661067 0.007997856
000270 ec 51 eb 39 1e 07 84 3c 28 f0 ca 3c 4e 87 a5 ba
       0.0004488373 0.016116675 0.024772719 -0.0012628825
000280 79 52 39 bc d1 f1 fd bb f2 65 e5 bc 61 f0 51 3c
       -0.011311167 -0.007749774 -0.028002713 0.012813658
000290 37 78 e8 bb 68 da 04 3d cf f4 1a 3c 4b a2 f5 bc
       -0.007094409 0.03243485 0.009457781 -0.029984614
0002a0 81 55 51 3c 52 30 1d 3b 76 bc 1e bc 3f f2 d2 3b
       0.012776733 0.00239851 -0.009688487 0.0064375694
0002b0 b6 0d 9b bb 4b 57 68 bc 77 6b fc 3c e7 db 7a 3b
       -0.004731859 -0.0141809685 0.030812962 0.0038278045
0002c0 bd 3d c0 bc d9 37 23 bc 33 29 8b 3c 93 5d 06 3d
       -0.02346694 -0.009962046 0.016987419 0.032804083
0002d0 79 37 00 bd 9d 3a 11 3d 4c 15 f5 bc bd 91 05 bd
       -0.031302903 0.03545629 -0.029917382 -0.03260969
0002e0 08 fe 76 3c de 17 9a b9 54 42 d6 3c 04 c2 d2 3b
       0.015075214 -0.0002939095 0.026154675 0.00643182
0002f0 96 96 d0 ba ef fe aa 3b 71 a6 83 3b 8c 4a f2 3b
       -0.0015914019 0.0052183787 0.004017644 0.0073941406
000300 59 7e ba 3b 55 20 84 bc 46 14 1d bd b7 7c 3f bc
       0.0056913313 -0.016128698 -0.038349412 -0.011687449
000310 de ef dd bb fc 03 ab 3b b5 52 63 3b aa b7 8a bc
       -0.006772979 0.005218981 0.0034686748 -0.016933281
000320 e1 d3 d7 3c c1 96 47 3c 1f 84 0a 3d ff 4f c0 ba
       0.026346149 0.012181939 0.033817407 -0.0014672278
000330 33 1f b4 bc 5a d3 5d bc 9d b1 fc bb f0 79 33 3c
       -0.021987533 -0.01353916 -0.007711603 0.010954365
000340 08 9b 7f 3c e7 da 67 bc 9c 4c 5a b9 54 6e 15 bc
       0.015600927 -0.0141513115 -0.0002081864 -0.009120543
000350 fb 3e 24 bc 60 ed 4e bc 01 56 24 3d ad 4b 7c 3b
       -0.010024781 -0.012629837 0.040121082 0.0038497255
000360 69 65 a2 3c 3f c5 34 3b 17 23 d2 bc 08 43 f2 bc
       0.019823747 0.0027583388 -0.025651498 -0.029572979
000370 08 c4 a9 ba 9f 90 12 3c 93 f7 ea bc 88 93 ac 3b
       -0.0012952099 0.008945613 -0.028682506 0.0052666105
000380 28 0e 6f 3c 1a 47 28 bc 48 68 bb bc 5d 77 9e bb
       0.014590777 -0.010270858 -0.022876874 -0.0048360066
000390 d3 65 6a 3b 36 22 51 bc df c7 00 bc 9f 6a 4d ba
       0.0035766258 -0.012764504 -0.007860153 -0.0007836017
0003a0 53 28 a7 3c 97 a1 45 bc b9 b1 95 bb 5f 50 75 bc
       0.02040497 -0.012062452 -0.0045683053 -0.014972775
0003b0 8c 7b 8d 3c 11 e8 75 bc 1d 4c c4 bb 65 2c c7 3c
       0.017270826 -0.015008942 -0.0059905187 0.024313161
0003c0 82 bb 06 3c 95 12 f7 3c f6 51 44 bc 76 bb bf 3c
       0.008223416 0.030160228 -0.011982432 0.023404818
0003d0 76 c2 0a 3d 47 47 9a bb c9 b7 c2 bb 98 20 9e bb
       0.03387686 -0.004708204 -0.005942319 -0.004825663
0003e0 67 0f e3 bc 00 0c e5 ba e4 99 5f bc c8 8d 12 bb
       -0.027717305 -0.001747489 -0.01364753 -0.002236234
0003f0 9b 3d 81 bb 3a ef 3b 3c e0 46 71 3c c3 b4 7c bc
       -0.0039441115 0.01147061 0.014726371 -0.015423956

b2 f4 [1, 10]
000000 64 18 33 ba 2f d2 8e ba b5 3a c7 ba a0 fd 45 b9
       -0.00068319426 -0.001089638 -0.0015199991 -0.00018881867
000010 5e fe d1 39 82 7c ae b9 fe 76 36 ba 58 b1 c8 ba
       0.00040053105 -0.00033280632 -0.000696048 -0.0015311642
000020 78 ec 47 3b 88 c5 29 3b
       0.0030505937 0.0025905091
