checkpoints/model_20241207_172743.pth (torch, 409152 bytes, 4 tensors)

W1 f4 [784, 128]
00000000: 1ad0 83ba cf6e 3abb 2d0d 56bb f70e 3c3b
00000010: 7d4b f93a dcb6 f7ba 8279 883b 2975 433c
00000020: 0c41 e53b 6332 7aba 2984 893b 833a 29bb
00000030: b39f 313c 4fea dcbb d08f 62bc b412 60bc
00000040: 968f 12bc 039d 9a3b d0d8 33bb 1980 2ebc
00000050: 9f87 b3bb c43a 96ba ad38 163b 5891 81bb
00000060: d87c 833c e290 34bc 84b1 523c cce4 333c
00000070: e76c 833a 79ae d7bb c3ce 453c eeb3 2bbb
00000080: 28ee 213c b180 313c a395 1fbb c277 363b
00000090: ee74 643c 2fa9 4c3c 0a14 a73b 5fbd 1abc
000000a0: 840e ba3b b90b d3b7 dfe2 f93b 9318 a93b
000000b0: dc9e 8c3b a3d1 9b3b 4546 1bba 10eb 84bc
000000c0: efa7 96ba 95e4 013b 89ca 883c 58df 763c
000000d0: aa8f 0eba 8efb 26ba 21f5 663b 138e 783a
000000e0: ce31 853c 490b 76bc af4b 083c c24b 873c
000000f0: e21c 4fbc 5697 a3bb 4c0a db3b 8b61 a83b
00000100: aa02 20bb bf48 27bc a4e1 30bb f6b0 023a
00000110: 60ab 103c c92f 2cbc 31e9 6739 ea93 d9bb
00000120: 6237 ec3a cd39 4eb9 9238 99bc cd82 babb
00000130: edd2 573c e755 643c 25a9 6abc cf0d 01bc
00000140: c77d a1bb 0efc 53bb 010b df3b 310e ef3b
00000150: 4cb8 29bb 93f0 c93b 6e80 a3bb 6fe7 37bc
00000160: 686d 3e3c 0cc1 b33c c984 b7ba 2302 c4bc
00000170: 09ad 5cbc 0d09 db3b 2fff 0a3c fdd4 4dbb
00000180: 95b8 0dbc 7e1f 5937 1b43 e1ba e552 cfbb
00000190: 9155 31bc ad0f c1bb 8201 e2ba b43c 6b3b
000001a0: dd79 c3b8 b13b 9ebb ac83 003b a997 ae3b
000001b0: 7abb 2f38 f59c c6ba b8ba 83bc d2d0 c53b
000001c0: 2a76 b4bb 0420 3d3c 13de c6bc 9a02 af38
000001d0: b3f7 913b d8f2 fdba 00ab 5ab9 9087 453c
000001e0: 4ef7 f4ba 9947 e73b 278a a53a fcc7 e0bb
000001f0: 69d7 b1bb 5882 02ba a557 cd3b 4fa8 7ebb
00000200: 288f 9dbc 910a 603a f667 ee3b 9c9e bb3b
00000210: b011 78bc 1de8 293c be08 763b b1b4 8e3b
00000220: 8601 5cbc 6639 e5ba 045a 2d3b 379a b53c
00000230: ac52 223b c8cf 02bc 296e 8b3b 39b6 f7ba
00000240: efda d4bb c41e fb3b 0f22 b4bb 8ed2 fd3b
00000250: 9146 653c 8d7a 5dbc 5ac9 8e3b f8c0 d83b
00000260: 5362 16bc baf8 9ebb 9b83 50ba 6fc9 9a3b
00000270: e0c5 9fb9 25c4 1239 4ac3 24bc 0a48 bcbb
00000280: 5055 c13b 4d4f d63c 703a 303c 374c e23b
00000290: d0a3 fe3b 6d3a 58bb ce7c b5bb acf1 ffbb
000002a0: f2c1 e33b fed0 03bd f580 58bc c2ea 83bb
000002b0: ad69 653b 1ea3 b53c 304e f1bb cb90 3a3c
000002c0: f02c 2d3c 6365 e83a 8d38 e13b f162 bdba
000002d0: 27f1 763b ea3e 7f3c fc53 203c 5458 d3ba
000002e0: abca 69bc f06c 37bb 2bd6 5e3b 09c9 8b3b
000002f0: 6dc0 b2bb 3052 903c c9ea 7f37 f79f af3b
00000300: e907 83bc ba7f 63bc 8fe0 d3bb 69d8 03bb
00000310: faa3 e13c 0c32 86bb b25d 64bc d94c 37bc
00000320: c8c2 1ebb 18f1 bb3a 6b0b e23a 4d0f 733a
00000330: 2362 8c3b c62a 23bc 6c7b 15bc 1113 21bc
00000340: 1891 d03a ad28 1c3c 8618 b6bb 7738 603c
00000350: 7f23 e13c 5f55 84b9 bb9e 8b3b 7e72 32bb
00000360: 527b 91bc f6dd 15bb 412d 90bb 97b3 dcbb
00000370: 40ed 8cbc 38fb 2bb9 6aca df3b f62a 6bbc
00000380: bc52 e2bb 58cb d33b 68d9 1e3c 6223 2c3c
00000390: 2a2f 9bbb 4809 f1bb 5343 49bc 3f72 063a
000003a0: 26a2 1fbc b8ab f8bc b325 70bb 45ea 63bc
000003b0: 1331 733b a4cf 08bb a22d f23b bfe1 1fbc
000003c0: 434b f5bb e9a9 bb3b 7e4b 1bbb 6df5 9f3b
000003d0: b9d8 c7bb a624 d5bb dd8d c5bb 114c a53b
000003e0: cb52 3d3b b928 5cbb a1bd f23a 2be3 4c3b
000003f0: 23c8 3a39 96ee 9fb9 278c 243c 164a b23c
-0.0010056526 -0.0028447395 -0.0032661662 0.0028695443 0.001901969 -0.0018899101 0.0041648755 0.011929789
0.0069962796 -0.00095442514 0.004196663 -0.002582223 0.010841298 -0.006741799 -0.013828233 -0.013676334
-0.008945366 0.0047184243 -0.0027442463 -0.010650658 -0.005478814 -0.0011461605 0.0022921965 -0.003954094
0.016050741 -0.011020871 0.012859706 0.010979842 0.0010026962 -0.006582078 0.012073222 -0.0026199776
0.009883441 0.010833905 -0.0024350665 0.0027842377 0.013943894 0.012491508 0.0050988244 -0.009444564
0.005678 -2.5158619e-05 0.007625922 0.0051604 0.0042913985 0.0047552153 -0.0005923252 -0.016225368
-0.001149414 0.0019820083 0.016698139 0.015067898 -0.0005438278 -0.0006369882 0.0035241323 0.000948162
0.0162591 -0.015017339 0.008318826 0.016515616 -0.012641164 -0.004992406 0.006684577 0.005138581
-0.002441565 -0.010210215 -0.002698996 0.00049854757 0.0088299215 -0.01050944 0.00022116747 -0.006639947
0.0018021876 -0.00019667223 -0.018703733 -0.005691862 0.013172847 0.013936496 -0.014322554 -0.007876827
-0.004928324 -0.0032346281 0.0068067317 0.007295393 -0.0025897203 0.006162712 -0.0049896752 -0.011224612
0.011622764 0.021942638 -0.0014001365 -0.0239268 -0.013468989 0.0066844285 0.008483692 -0.0031407468
-0.008649965 1.294154e-05 -0.0017186137 -0.0063270205 -0.010823623 -0.0058917613 -0.0017242881 0.0035894336
-9.3210234e-05 -0.004828893 0.0019609733 0.005328138 4.1897852e-05 -0.0015152978 -0.016080245 0.006036856
-0.0055072503 0.011543278 -0.024275815 8.345135e-05 0.004454577 -0.0019374741 -0.00020853803 0.012056246
-0.0018689425 0.0070580957 0.0012629674 -0.0068597775 -0.00542729 -0.0004978529 0.0062665516 -0.0038857644
-0.019233301 0.00085464964 0.0072755767 0.005725695 -0.015140936 0.0103702815 0.0037541832 0.004355036
-0.013428098 -0.001748842 0.0026451359 0.022168262 0.0024768515 -0.007984109 0.0042550755 -0.0018898911
-0.0064958255 0.0076635797 -0.005497224 0.0077460473 0.013993875 -0.013517988 0.004357499 0.0066148005
-0.009178716 -0.004851428 -0.0007954181 0.00472372 -0.00030474272 0.00013996715 -0.010056326 -0.0057458924
0.0059000626 0.02616086 0.01075612 0.006906058 0.007770993 -0.003299381 -0.0055385595 -0.007810792
0.0069506103 -0.032181732 -0.0132143395 -0.004025788 0.0035005615 0.022172507 -0.007364057 0.01138706
0.010569796 0.0017730411 0.0068731965 -0.0014449043 0.003768036 0.015578965 0.009785648 -0.0016124346
-0.014269511 -0.0027988516 0.0034002166 0.0042659086 -0.005455068 0.017617315 1.525385e-05 0.0053596455
-0.015994983 -0.013885433 -0.0064659785 -0.0020118004 0.02754401 -0.0040953215 -0.013938354 -0.0111877555
-0.0024224985 0.0014338819 0.0017245834 0.00092719943 0.0042841597 -0.009958928 -0.009123664 -0.009831206
0.0015912382 0.009531182 -0.0055571226 0.013685337 0.027482746 -0.00025240608 0.0042608655 -0.0027228887
-0.017758999 -0.0022867895 -0.004399926 -0.006735276 -0.017202973 -0.00016401417 0.0068295496 -0.014353504
-0.0069068354 0.0064634494 0.009695388 0.010506483 -0.004735847 -0.0073558427 -0.012284118 0.00051287183
-0.009743249 -0.03035532 -0.0036643564 -0.013910835 0.0037108108 -0.0020875717 0.0073906938 -0.009758412
-0.0074857785 0.005727042 -0.002369612 0.004881552 -0.0060988334 -0.006504613 -0.0060288743 0.005044468
0.002888846 -0.0033593609 0.0018519649 0.0031263332 0.00017812899 -0.00030504604 0.010043181 0.021763843

b1 f4 [1, 128]
00000000: ad7d 0b36 ee2d 8935 ae96 7ab6 f734 64b7
00000010: 0a96 3db7 b919 96b5 e2a2 45b8 ae33 8337
00000020: 04a7 1d37 fd8d 69b6 255d 77b7 a680 4eb7
00000030: 9add 2bb7 6520 f2b6 5290 eeb6 d850 07b5
00000040: ba32 c3b5 f664 2438 ee7b 3334 c30d adb7
00000050: 5d11 1db7 b6da 91b7 a4f4 ecb7 bd3c e0b5
00000060: 2a3b 92b6 f264 2b36 52a4 88b7 9728 a837
00000070: 28c8 d035 b79c 0137 fecd 12b7 a5ba 8eb7
00000080: 1056 c1b6 ada1 a3b6 1de1 54b6 91bb 59b7
00000090: 33e1 83b4 2b4e 87b6 d587 6936 d99d 0737
000000a0: e989 8eb6 0a32 82b6 bac8 b636 b76a a735
000000b0: a4d7 9d37 ef27 0336 279b 8935 31b8 42b7
000000c0: fcb6 a0b6 039c 3b37 7ea2 8eb7 d4e2 bcb6
000000d0: 918f 00b7 3f42 5fb7 38a9 c3b7 c808 27b6
000000e0: ee13 1836 1659 4b37 0501 33b7 a6a9 cab4
000000f0: 70ef ddb6 0526 5fb6 a743 28b7 624e 1f37
00000100: f867 a4b6 e74a acb6 7449 3237 1f51 55b7
00000110: 7aad e035 88bf 1738 3929 6437 5b49 5c36
00000120: 1e98 b3b7 0afa c6b6 efce ab36 a4f1 06b7
00000130: 75f6 10b7 aeb2 a3b5 82f7 0436 b80b b8b7
00000140: 1b65 9cb5 502f aab6 c133 00b7 32b6 32b6
00000150: f0ab 6e36 8ac7 c6b5 2a65 e1b6 570a 01b7
00000160: dead cbb6 2abd a7b7 e0fb 7935 f049 6f33
00000170: 74ce 0e37 0ce0 a4b7 7437 03b8 4dc8 12b7
00000180: 59d8 e8b6 6f1e e6b6 fcdf aeb7 fa03 80b6
00000190: 7ae2 88b7 7e43 a8b6 fd3e dab7 fdfc 2338
000001a0: a69e 6db7 dd45 75b7 1861 b9b6 b702 8fb7
000001b0: 7341 b8b7 509e b6b6 0748 3536 109b 3db6
000001c0: 34c3 6eb7 6031 97b6 ebfa 89b7 10b8 c7b6
000001d0: dbd8 5cb7 4d20 7a36 3cbd 70b7 6fa8 17b5
000001e0: 41b5 d7b6 6461 8a37 ecf7 9ab7 5f25 94b7
000001f0: 7d93 18b7 0d86 dcb6 4a42 d4b6 aecf 9f36
2.0785767e-06 1.0220663e-06 -3.734061e-06 -1.3602191e-05 -1.1300212e-05 -1.1183357e-06 -4.7120157e-05 1.5640482e-05
9.396816e-06 -3.4802354e-06 -1.4744034e-05 -1.230851e-05 -1.024399e-05 -7.2159332e-06 -7.109754e-06 -5.040906e-07
-1.4543396e-06 3.9194674e-05 1.671576e-07 -2.0629615e-05 -9.361972e-06 -1.7387192e-05 -2.8247312e-05 -1.6706978e-06
-4.3580267e-06 2.5539744e-06 -1.6288981e-05 2.0046062e-05 1.5555461e-06 7.725487e-06 -8.750239e-06 -1.7014632e-05
-5.761867e-06 -4.8766e-06 -3.1721495e-06 -1.2977879e-05 -2.4564505e-07 -4.0324135e-06 3.479877e-06 8.083379e-06
-4.2479846e-06 -3.880127e-06 5.4473903e-06 1.2473528e-06 1.8816274e-05 1.9543766e-06 1.0252451e-06 -1.16061865e-05
-4.7896738e-06 1.1182393e-05 -1.7003385e-05 -5.629243e-06 -7.662821e-06 -1.330726e-05 -2.332461e-05 -2.489005e-06
2.2661366e-06 1.2120485e-05 -1.0669469e-05 -3.7748867e-07 -6.6141874e-06 -3.325172e-06 -1.0029332e-05 9.495388e-06
-4.8996844e-06 -5.1347192e-06 1.0626729e-05 -1.2714677e-05 1.6739789e-06 3.6179583e-05 1.3599457e-05 3.2825253e-06
-2.1409298e-05 -5.929968e-06 5.1202874e-06 -8.043284e-06 -8.640452e-06 -1.2196449e-06 1.9813601e-06 -2.1939966e-05
-1.1652331e-06 -5.0719027e-06 -7.641444e-06 -2.6630119e-06 3.5564844e-06 -1.4810223e-06 -6.7172996e-06 -7.691407e-06
-6.0701122e-06 -1.9996038e-05 9.3126255e-07 5.571377e-08 8.511928e-06 -1.9654653e-05 -3.128448e-05 -8.748914e-06
-6.939325e-06 -6.858077e-06 -2.0846717e-05 -3.81516e-06 -1.6317925e-05 -5.0146473e-06 -2.6016956e-05 3.9097842e-05
-1.4163239e-05 -1.4619404e-05 -5.524733e-06 -1.7048193e-05 -2.1964986e-05 -5.4424527e-06 2.7013027e-06 -2.8253453e-06
-1.4231355e-05 -4.5058987e-06 -1.6448515e-05 -5.95209e-06 -1.3163512e-05 3.7271705e-06 -1.4349174e-05 -5.6496987e-07
-6.4286e-06 1.6496233e-05 -1.8473678e-05 -1.7660377e-05 -9.094246e-06 -6.5721165e-06 -6.3258094e-06 4.7627464e-06

W2 f4 [128, 10]
00000000: e656 fcba 7bab 243d 8fef ccbc 2526 2fbc
00000010: 47b0 cb3c 16f8 be3a 3c02 d63c fdef 8fbc
00000020: df4f 0fbc a8b3 e5bc ed28 f1bb bd75 2c3d
00000030: 3ced fc3c bb5e 073c 58be 06bc 374d 533b
00000040: d2e5 8dbb 18ce 083d 0daf 7fbc 1c05 49bd
00000050: 4b4d 4abc ee09 413c 36d1 f53b 6873 bab9
00000060: e5b7 ae3b f65e 773b 9767 5abb 6daf 2abc
00000070: 8d4f 82bc 28d0 a2b9 df01 30bc a757 28bc
00000080: 0c14 d8ba 3c00 f4bb 0ba3 16bb 11ba bcbb
00000090: 5db2 57bc 9775 a5bb 582c d73b 54b2 c9ba
000000a0: d9b6 3dbc dee4 a53a c9b0 433c d574 4e3c
000000b0: 9887 8dbb c61f 7abc cc0b 733a ab30 fcbb
000000c0: 80b1 c53c 898b a0bc 55a6 9a3c eecb a03a
000000d0: e65d 9bbb c505 e2bc ff84 a43a 78c2 273b
000000e0: 4cb1 733b feac f43b 4508 b9bc a57d 7c3b
000000f0: ae48 ae3c 3023 a33c 50f7 ddba 1d39 4f3b
00000100: b7ed 4d3c 4865 e7bc 9236 eb3c 9900 f2bb
00000110: ad39 abbc 5b9a 4bbc c62a 6fbb d38f 583b
00000120: c845 3a3b a04c adbc 09af 5c3d efce 91bb
00000130: 185f 9dbc b4d6 ed3c 47cd 32bd 0600 b53c
00000140: 962c e4bb e4ad 11bd d06a 6dbc 7be7 0e3c
00000150: 516d 18bd d15e 383c 120e bbbc b9f3 1f3c
00000160: da62 23bc 4c78 623c 2a49 41bc fcfe 29bb
00000170: dd30 873c 11dc 183b d4b2 4ebc 4f32 853c
00000180: 3fbe 1dbc 6780 81bc f118 3c3c 6050 cbbb
00000190: 0674 c13c d68e 3b3c 8688 fcbb 297f 9dbb
000001a0: 7e9f 4a3c b595 c2bc 8045 af3a e601 34bb
000001b0: 4cdc 66bb a27f 313c 8359 21ba c63f cf3b
000001c0: c567 a03b 03e0 913c a11a 093d 75c6 56ba
000001d0: 4d46 693c 41cd c1bb 2233 8fbb 73f9 42bc
000001e0: 91ab 9fbb 9646 91bc 6792 063d eff1 063c
000001f0: bcef a9bb 3860 85ba 53d8 42bc a5d8 04ba
00000200: a172 1abb 00df cf3b fbb4 edbb f4db 8dba
00000210: d90e 25bc cca6 7cbb d437 72bc 1e44 253d
00000220: e093 bdba 0906 d43b a462 61bb 2ae5 3ebc
00000230: 2d53 2cbc 9234 83bc afd9 b5bc f840 183d
00000240: 0088 06bc 3c0c bb3c 2725 a4bc 439a e9bc
00000250: 68d0 c1bc 76e4 13bc a54f a7bc 1989 ea3c
00000260: 83ae 93bc d089 f5bc dffb 0e3c 2d71 5e3c
00000270: 4678 1b3b f6f5 823c 9e1a 3f3c ed10 7bbb
00000280: e098 8bba 07fd 52bc 412c 513c 6059 53bc
00000290: 5a0c 563c 077e 043c 41de a3bb 59ee 4d3b
000002a0: 9c6b 973c fd34 e5bb b512 18bc c416 6dbb
000002b0: 0d8a 063c 2fb6 e2bb 07d1 54bd 8f3a 183d
000002c0: 3345 68bc 2bd4 243c 3efb a7bc ee50 8ebc
000002d0: 0ff9 b03b 61e8 d63b 9a32 9a3c 7cd5 b0bb
000002e0: 870a 623c dca2 11bc 854e f138 2dbf 0cbc
000002f0: f71e 20bc 3a51 62bb 0525 803b 1612 a93b
00000300: bdb8 eabc 97fe 373b cf74 863c 2b16 47bc
00000310: 9898 b1bb 821f a83c 191d c4bc b83d e83c
00000320: 2506 00bd f375 fa3a 22bd af3c feb1 203b
00000330: 3d78 843c 6be3 debb e0b5 2cbc 990b 873b
00000340: ae37 9d3c 242a d6bc c52e eb3c 1867 d3bc
00000350: b07f 903c de87 3bbc 5267 30bc 7c69 e0bc
00000360: 3244 6dbb 116c e43b 25d6 c7bc 9f88 9d3c
00000370: 739c 62bc c03a 0e3d 3ed3 053d cd20 033d
00000380: 9bff 913c 5d33 89bc a285 20bc cfcd fe3b
00000390: 7465 6e3c 1076 41bc dfe4 503b 9865 0b3b
000003a0: d022 01bc 0bc7 d9ba d4a9 bc39 1ead 8abb
000003b0: aa80 79ba d56a 113c f3ff abbb 8738 c4bc
000003c0: fbba 81bc 7f42 21bc a04d e6bb e212 d3bc
000003d0: a5df 2c3c 64b2 a03b 1736 91bc 6e5b 9d3c
000003e0: e32c 04bd d6c6 dd3c 3da0 253c 686e 32bb
000003f0: 96aa 603c 6f0a 4a3c 41e1 d6bc f40f 293c
-0.0019251972 0.0402026 -0.025016574 -0.010690247 0.024864329 0.0014569785 0.026124112 -0.01757049
-0.00874707 -0.028039768 -0.007359615 0.04210447 0.03087484 0.008262332 -0.008224092 0.0032242069
-0.004330375 0.03339967 -0.0156057 -0.04907714 -0.01234753 0.011782153 0.0075017465 -0.0003556267
0.0053319805 0.003774581 -0.0033325905 -0.010417801 -0.015907073 -0.00031054136 -0.010742634 -0.010274804
-0.0016485467 -0.007446317 -0.0022985365 -0.0057594855 -0.013165084 -0.005049418 0.0065665655 -0.0015388229
-0.011579239 0.0012656709 0.011944004 0.012601097 -0.0043191426 -0.015266364 0.0009271472 -0.0076962314
0.02413249 -0.019597786 0.018878141 0.0012267807 -0.004741418 -0.027590642 0.0012551843 0.002559809
0.0037184535 0.0074669113 -0.022586951 0.0038527038 0.02127489 0.01991424 -0.0016934667 0.0031619736
0.012568883 -0.028246537 0.028712545 -0.007385325 -0.020901525 -0.012426938 -0.0036494 0.003304471
0.002842294 -0.021154702 0.053877864 -0.0044497172 -0.019210383 0.029033042 -0.0436528 0.022094738
-0.006963323 -0.035566226 -0.014490798 0.008722181 -0.037213627 0.011253075 -0.022833858 0.009762698
-0.0099722985 0.013822626 -0.011797229 -0.0025939336 0.016502792 0.002332453 -0.012615878 0.01625934
-0.009627878 -0.015808297 0.011480556 -0.00620465 0.023614895 0.011447629 -0.0077067045 -0.0048064184
0.012367127 -0.023753027 0.0013372153 -0.0027466952 -0.0035226522 0.010833653 -0.0006155001 0.006324741
0.004895183 0.017807012 0.03347266 -0.00081930246 0.014237952 -0.0059143608 -0.004370109 -0.011900294
-0.004872747 -0.017733853 0.032854464 0.008236392 -0.0051860493 -0.001017577 -0.011892396 -0.0005067683
-0.002356686 0.0063437223 -0.0072542406 -0.0010822997 -0.010074341 -0.0038551567 -0.014783818 0.040348165
-0.0014463626 0.006470446 -0.003439107 -0.011651317 -0.0105178775 -0.016016278 -0.022198526 0.037171334
-0.008211136 0.022832982 -0.020037247 -0.02851594 -0.023658946 -0.009026637 -0.02042372 0.028629826
-0.01802755 -0.02997294 0.008727043 0.013576788 0.0023722812 0.015986424 0.011664061 -0.003830965
-0.0010650419 -0.012877709 0.012766899 -0.012899727 0.013064468 0.008086688 -0.00500086 0.0031422584
0.01848393 -0.006994842 -0.009281804 -0.00361769 0.008211625 -0.0069186906 -0.051957157 0.03716522
-0.014176655 0.01006035 -0.020505544 -0.017372575 0.005400784 0.0065584634 0.018822957 -0.005396543
0.013796455 -0.008888926 0.00011506401 -0.008590502 -0.009773008 -0.0034533278 0.003910663 0.0051596267
-0.028652543 0.0028075331 0.01641312 -0.012151281 -0.005419802 0.020522837 -0.023939656 0.028349742
-0.03125586 0.0019108638 0.02145249 0.0024520154 0.016170615 -0.0068020127 -0.010541409 0.0041212556
0.01919159 -0.026143141 0.028708825 -0.025805995 0.017639011 -0.0114459675 -0.010766821 -0.027394049
-0.0036203978 0.0069708903 -0.024394104 0.019230185 -0.013831246 0.034723997 0.03267216 0.032013703
0.017822077 -0.016748125 -0.009797486 0.007775999 0.0145505555 -0.011807933 0.00318747 0.0021270271
-0.007881835 -0.0016615106 0.00035984686 -0.004232063 -0.00095177686 0.008875568 -0.0052490174 -0.023952736
-0.01583623 -0.009842514 -0.0070282966 -0.02576584 0.010551368 0.0049040783 -0.017725987 0.019208636
-0.03226937 0.027072351 0.010109005 -0.0027226452 0.013712546 0.012331589 -0.026230456 0.010318745

b2 f4 [1, 10]
00000000: 8e22 cbb8 27af 46ba 89b6 77ba 21f6 17b9
00000010: 0d2e 4139 e2be cdb9 911e 1eba 58c9 70ba
00000020: 9788 4a3b ba20 193a
-9.6862306e-05 -0.00075792003 -0.0009449502 -0.00014492172 0.0001842307 -0.00039242866 -0.00060317764 -0.0009185276
0.0030904168 0.00058413635
