checkpoints/model_20241207_173239.pth (torch, 409152 bytes, 4 tensors)

W1 f4 [784, 128]
0	0x3bd113c8	0.006380532
1	0xbc7708bd	-0.015077767
2	0xbbdfbc34	-0.0068278555
3	0xbb7fb138	-0.0039015543
4	0x3a53ab1f	0.000807451
5	0x3b020090	0.001983676
6	0xbaff4e39	-0.0019478268
7	0xbccf55e0	-0.025309503
8	0xbbe55cd8	-0.006999593
9	0x3a94520f	0.0011315959
10	0xbbd81650	-0.0065944567
11	0xbca12f77	-0.019675953
12	0xba7b3475	-0.0009582707
13	0x3c2f5649	0.010701724
14	0xbb260abe	-0.0025335993
15	0xbb935274	-0.004495913
16	0xbaf69c8a	-0.0018814963
17	0x39f807e9	0.0004730814
18	0xbb91aa01	-0.004445315
19	0x39ec55f1	0.0004507746
20	0xba287b84	-0.00064270967
21	0xbab87230	-0.0014072116
22	0x3c742280	0.014900804
23	0xbb24b33d	-0.0025131248
24	0x3aab48ff	0.0013068019
25	0x3ac9909b	0.0015378179
26	0xbbf6771b	-0.0075215227
27	0x3c45afbd	0.012065825
28	0xbaf439e8	-0.001863298
29	0x3c23321e	0.009960679
30	0xba924d13	-0.0011161886
31	0x3b3538d3	0.0027652278
32	0xba2999c4	-0.0006469751
33	0x3b199ce8	0.002343947
34	0xbb6ff57b	-0.0036614824
35	0xbc85c5f7	-0.016329749
36	0x37c39ae2	2.3317934e-05
37	0x3c6a1db3	0.014289307
38	0x3a9c20e9	0.0011911663
39	0x3c3717db	0.011175121
40	0xbc4763bc	-0.012169775
41	0xbc54778d	-0.012967956
42	0x3c1320c8	0.008979984
43	0x3c1310be	0.00897616
44	0xbbb15a6d	-0.005412391
45	0x3c082bc1	0.008311213
46	0x3813448e	3.5111378e-05
47	0x3c127b69	0.008940556
48	0x3ad159a9	0.0015972155
49	0x3cab58fe	0.020916458
50	0x3adae9d0	0.0016701762
51	0xbb2807c2	-0.002563939
52	0xbb27fa76	-0.0025631464
53	0x3b2bf326	0.0026237457
54	0x3c2eb6ff	0.010663747
55	0x3b6c0f48	0.003601985
56	0x3bf7982a	0.007555981
57	0xbb92c016	-0.004478465
58	0xbc324aad	-0.010882062
59	0xbbaab477	-0.0052095014
60	0x3c606f54	0.013698418
61	0x3c08a7ae	0.008340759
62	0x3a303c56	0.0006722858
63	0x3c943083	0.018089538
64	0xbaf37879	-0.0018575332
65	0x3b57816a	0.0032883533
66	0x3be88ffe	0.0070972433
67	0xbc5905d1	-0.013246016
68	0xb995733f	-0.0002850536
69	0xbbf6f7e1	-0.0075368737
70	0xbc15bbcf	-0.009139015
71	0xbc979643	-0.018504268
72	0xbc911a33	-0.017712688
73	0xbceef5a5	-0.029169867
74	0xba8df6b6	-0.0010830972
75	0x3c0c896f	0.008577689
76	0x3c222784	0.009897117
77	0x3b9831d2	0.004644611
78	0x3b19eb0b	0.0023486044
79	0x3cba8424	0.022768088
80	0x3b8d1976	0.0043060137
81	0x3cb959e9	0.02262588
82	0x3b30c84f	0.0026974862
83	0x3ab9c0bf	0.0014171823
84	0xbc5c04dd	-0.013428894
85	0x3bf8b709	0.007590179
86	0x3c87133f	0.01648867
87	0xbc3b5825	-0.0114345895
88	0x3accaff3	0.0015616402
89	0x3bf7d9f8	0.0075638257
90	0x3b65e075	0.0035076414
91	0xbb083d5a	-0.0020788522
92	0x3cb54ff3	0.02213285
93	0xbbcd988e	-0.0062742895
94	0xbce6ef81	-0.028190376
95	0xba2269d2	-0.0006195578
96	0xb9e0d62b	-0.00042884177
97	0xbc0a6b1c	-0.008448388
98	0xbbb378cb	-0.005477046
99	0xbba571ab	-0.0050489507
100	0x3c0e0001	0.008666993
101	0xbb476e9c	-0.0030430919
102	0xbace275a	-0.001572828
103	0xbc9c6c0a	-0.019094486
104	0xbaee5a9c	-0.0018184963
105	0x3b561a65	0.003266954
106	0xbc7d163f	-0.015447198
107	0x3baa1066	0.005189943
108	0xbc611a27	-0.013739145
109	0x3bb2f0e2	0.0054608444
110	0x3c60acf8	0.013713114
111	0xbbdb823f	-0.006698876
112	0x3b7e5469	0.0038807637
113	0x3c49a15f	0.01230654
114	0x3b8c0eea	0.004274239
115	0x3798cceb	1.8215234e-05
116	0x3c158519	0.009125971
117	0xbb077cde	-0.0020673792
118	0x3be2f159	0.0069257435
119	0x3c75a1bc	0.014992174
120	0x3c788814	0.015169162
121	0x3ae1d84b	0.0017230598
122	0x3c597dc1	0.013274611
123	0x3c16d747	0.0092066
124	0xbb61ab91	-0.0034434537
125	0xba373a95	-0.00069896254
126	0x3c27b6bf	0.010236441
127	0x3c7a60a2	0.015281828
128	0x3b828bad	0.003983936
129	0x3caf7333	0.021417236
130	0x3bc6678d	0.0060548247
131	0xbb3811a3	-0.0028086684
132	0x3c21af46	0.009868449
133	0xbbc3acfa	-0.005971548
134	0xbc160efd	-0.009158847
135	0xbc836598	-0.016039655
136	0x3b5d215c	0.0033741808
137	0x3c6a33cf	0.014294579
138	0xbb8239d7	-0.00397418
139	0xbbcdb73c	-0.0062779468
140	0xbb5f8caa	-0.0034110942
141	0x3b9bc36b	0.0047535202
142	0xbad7c92e	-0.0016463154
143	0x3c03845d	0.008027163
144	0x3a86a024	0.0010271114
145	0xbb41a442	-0.0029547368
146	0xba7309c5	-0.000927117
147	0x3b89b98e	0.004203028
148	0x3a3d65ee	0.00072249665
149	0x3ba6e624	0.005093353
150	0xbc2ac726	-0.010423457
151	0xbbcaad4f	-0.006185211
152	0xbbc87ace	-0.006118155
153	0xbae90471	-0.0017777813
154	0x3c8b6137	0.01701413
155	0x3b3727ee	0.0027947384
156	0x3c3c50ec	0.011493903
157	0xb99b8e06	-0.0002966972
158	0x3c1c4494	0.009537835
159	0xbbf8a777	-0.0075883227
160	0xbcec59e8	-0.028851464
161	0xbbccec19	-0.006253731
162	0xbb4d161d	-0.0031293698
163	0x3b0fbd0f	0.0021932756
164	0xbbaccf59	-0.005273741
165	0xbbde7897	-0.006789278
166	0x39524014	0.00020051032
167	0x3bed2dd6	0.00723813
168	0xbb8dc2f5	-0.004326219
169	0xbb9de049	-0.0048179966
170	0xbc5ae5ef	-0.0133604845
171	0x3b8ed472	0.0043588215
172	0x3c85ad91	0.016318114
173	0xbc8c94ea	-0.017160852
174	0x3b124e89	0.0022324643
175	0xbbab48e7	-0.0052271965
176	0xba441e4a	-0.000748132
177	0xbc6a6bd7	-0.014307938
178	0x3cd33329	0.025781231
179	0xbc1c9a9a	-0.009558344
180	0xbc969448	-0.018381253
181	0xbc2635c8	-0.010144658
182	0xbbc73728	-0.006079573
183	0xbbbca619	-0.005757105
184	0xbc1f37e8	-0.009717919
185	0x3b8f7136	0.0043775095
186	0xbbb3aa40	-0.005482942
187	0xbcac7437	-0.02105151
188	0xbc2dda61	-0.010611148
189	0x3bfc0fdd	0.0076923207
190	0xba9d4fad	-0.0012001895
191	0xba2fc427	-0.0006704949
192	0xbbe603f6	-0.007019515
193	0xbc83482e	-0.016025629
194	0x3b50e1cf	0.0031872874
195	0xbc3d3cee	-0.011550171
196	0x3bff39e2	0.0077888826
197	0xbcebfda4	-0.028807469
198	0xba6e2af4	-0.000908538
199	0xbc904ecf	-0.017615704
200	0x3b5939dc	0.003314606
201	0x3c68f59e	0.014218716
202	0xbba995f4	-0.0051753465
203	0x3b17038c	0.0023042886
204	0xbb0fe2ba	-0.0021955208
205	0xbc870143	-0.016480094
206	0x3b4359b1	0.00298081
207	0x3aedae7b	0.0018133664
208	0x3c7d4f8c	0.01546086
209	0xbc90544c	-0.01761832
210	0xbbad029e	-0.005279853
211	0xbb219ada	-0.002465895
212	0x3b094e8c	0.0020951359
213	0x3b607ef5	0.003425536
214	0x3b4be0d8	0.003110936
215	0xbc6efbd3	-0.014586407
216	0x3ac2586d	0.0014827378
217	0xbb0e8edf	-0.0021752638
218	0xbbd088fe	-0.006363987
219	0x3bf10075	0.007354791
220	0xbbb7a3cb	-0.0056042424
221	0x3c9acd4a	0.018896718
222	0xbc822bf1	-0.015890094
223	0x3bcd53bd	0.006266086
224	0xbc4921d3	-0.012276131
225	0xbc9c3502	-0.019068245
226	0xbbe93f79	-0.0071181622
227	0x3b2bdfbc	0.0026225885
228	0x3c46bcc1	0.012129963
229	0x3c342a11	0.010996358
230	0x3b91c741	0.0044488017
231	0xbb5476f2	-0.003241953
232	0x3ae48b60	0.0017436557
233	0xb89f0c21	-7.58397e-05
234	0xbac55008	-0.0015053758
235	0x3c29a4cb	0.010354231
236	0x3a81bd86	0.0009898401
237	0xbc2f4628	-0.010697879
238	0x3b0154f0	0.0019734465
239	0xbc41045a	-0.011780823
240	0x3b1dd623	0.0024083934
241	0x3c1f1954	0.009710629
242	0xbc0076d9	-0.0078408355
243	0xbb1ab69c	-0.0023607379
244	0x3bd31bbc	0.006442515
245	0xbbf11d7d	-0.0073582516
246	0x3af351b0	0.0018563773
247	0x3cac3596	0.021021646
248	0xbba9183e	-0.0051603606
249	0x3bb82ede	0.0056208214
250	0xbc1b0733	-0.009462166
251	0xb9372551	-0.00017466141
252	0xbaa9123b	-0.001289911
253	0xbbb48ea9	-0.0055101705
254	0x3c041548	0.0080617145
255	0x3b5edf62	0.0034007658

b1 f4 [1, 128]
0	0x36ef3d63	7.1299014e-06
1	0xb4cf1923	-3.8575044e-07
2	0x3721ddc9	9.647986e-06
3	0xb76f2be6	-1.4255731e-05
4	0x37048f32	7.901153e-06
5	0xb717c5cb	-9.046354e-06
6	0xb68e4920	-4.2404426e-06
7	0xb7c5ef1c	-2.3595574e-05
8	0xb80da79d	-3.377312e-05
9	0xb626582b	-2.4787248e-06
10	0xb7277707	-9.981689e-06
11	0xb5f8af68	-1.852849e-06
12	0xb7316218	-1.0572861e-05
13	0xb728a691	-1.0052362e-05
14	0x378ce6f0	1.679684e-05
15	0xb7086fdd	-8.132277e-06
16	0xb6905e41	-4.302507e-06
17	0x35140288	5.513798e-07
18	0xb6f50a8c	-7.302797e-06
19	0xb641ee07	-2.8897791e-06
20	0xb64f0355	-3.0847343e-06
21	0xb6a0fb2a	-4.797611e-06
22	0x373ee727	1.1378702e-05
23	0x3763e890	1.3584402e-05
24	0x364efaa6	3.0842289e-06
25	0xb75adf3e	-1.304579e-05
26	0xb79b25b2	-1.8494993e-05
27	0x3697064b	4.5008833e-06
28	0xb6e9828a	-6.959138e-06
29	0xb65fb976	-3.3337542e-06
30	0xb635ff12	-2.7119572e-06
31	0xb7eaf7e2	-2.8010403e-05
32	0xb656b0f8	-3.1991494e-06
33	0xb5a8290a	-1.2528919e-06
34	0xb6ad0d27	-5.157333e-06
35	0xb72cc736	-1.0298381e-05
36	0xb811becc	-3.4748387e-05
37	0x368b2618	4.1469575e-06
38	0xb7ec1be3	-2.8146378e-05
39	0xb6b138f2	-5.2816404e-06
40	0x37316077	1.0572482e-05
41	0xb6eb1b4b	-7.006723e-06
42	0xb8052bfd	-3.175064e-05
43	0x3719bcc3	9.16346e-06
44	0xb71029eb	-8.592829e-06
45	0x369a66d4	4.6015284e-06
46	0x35a1288e	1.2007238e-06
47	0xb731b8bb	-1.0593033e-05
48	0xb72a88ea	-1.0164667e-05
49	0x382c416a	4.1068917e-05
50	0xb7e480a9	-2.723963e-05
51	0x36fbaad4	7.50027e-06
52	0x368afc95	4.142125e-06
53	0xb7970b0f	-1.8005752e-05
54	0x36c91fe6	5.9939803e-06
55	0xb78daa2b	-1.688775e-05
56	0xb5ee3acc	-1.7749494e-06
57	0x369605e1	4.4710328e-06
58	0xb7124309	-8.717886e-06
59	0xb6b12da7	-5.2803257e-06
60	0xb7bef8e3	-2.2765662e-05
61	0xb6b358cc	-5.344953e-06
62	0x34f46cc0	4.5527668e-07
63	0x37bf241c	2.2785789e-05
64	0x3751a00a	1.2494633e-05
65	0xb5df9a78	-1.6659751e-06
66	0x36f27fe7	7.227052e-06
67	0x36f34162	7.249576e-06
68	0xb62a6c26	-2.5394925e-06
69	0xb74a87d6	-1.2071765e-05
70	0xb7027a95	-7.777145e-06
71	0xb6ed77ae	-7.077083e-06
72	0xb4f02104	-4.4727506e-07
73	0xb795f311	-1.787537e-05
74	0xb7889392	-1.6281181e-05
75	0xb806d6bd	-3.214808e-05
76	0x37504aa0	1.2415141e-05
77	0xb78a5c45	-1.6493848e-05
78	0xb7236ccb	-9.740887e-06
79	0x36a0fd9a	4.7978947e-06
80	0xb699079c	-4.560641e-06
81	0xb6d90539	-6.467712e-06
82	0xb730d5d4	-1.0540203e-05
83	0x35e46d99	1.7019221e-06
84	0xb6a41405	-4.8899115e-06
85	0xb74c24cf	-1.2167918e-05
86	0xb6f12e34	-7.1877384e-06
87	0xb7b6805a	-2.1755859e-05
88	0x36f28e14	7.228702e-06
89	0x37528749	1.2548474e-05
90	0xb67736be	-3.6837732e-06
91	0xb717a2cd	-9.038206e-06
92	0x35c705af	1.482831e-06
93	0xb594d14f	-1.1087776e-06
94	0xb659dcb9	-3.2463997e-06
95	0xb6ca6650	-6.03198e-06
96	0xb6f6c953	-7.3548085e-06
97	0xb8039e4f	-3.138027e-05
98	0xb75f44c1	-1.3307844e-05
99	0x3709dfbc	8.217929e-06
100	0xb5fa77ce	-1.8661319e-06
101	0xb8492f98	-4.796646e-05
102	0xb7b388eb	-2.140222e-05
103	0xb7185795	-9.080298e-06
104	0xb77738e9	-1.4735598e-05
105	0x37312c47	1.0560331e-05
106	0xb7cb4971	-2.4233685e-05
107	0x3665236f	3.4144284e-06
108	0xb6933518	-4.3871223e-06
109	0xb72a7cd6	-1.0161855e-05
110	0xb6056c21	-1.9881484e-06
111	0xb7261077	-9.898205e-06
112	0x35ff0f25	1.9003388e-06
113	0x36bb9d7d	5.5913683e-06
114	0xb80fd279	-3.4289875e-05
115	0xb6b9c86f	-5.536763e-06
116	0xb77109a8	-1.4366968e-05
117	0xb561eb28	-8.416123e-07
118	0xb76dfb6c	-1.41848395e-05
119	0xb6e57f5b	-6.839558e-06
120	0xb69972a7	-4.5731026e-06
121	0xb778389c	-1.4795132e-05
122	0xb6d291a2	-6.2754416e-06
123	0xb76c3ea3	-1.408128e-05
124	0xb6921742	-4.3538466e-06
125	0x378cb2c0	1.6772537e-05
126	0x36fcda97	7.5356324e-06
127	0xb7892413	-1.6348471e-05

W2 f4 [128, 10]
0	0x39961968	0.0002862916
1	0xbc2e3ee7	-0.010635114
2	0xbc12f55e	-0.008969633
3	0xbbba98bf	-0.0056944783
4	0x3b9ed37a	0.0048469873
5	0x3bdca604	0.006733658
6	0x3cc1cbb7	0.02365671
7	0x3cfb16f4	0.030650593
8	0xbbe06d40	-0.006848961
9	0x3bce32d3	0.00629268
10	0x3ac7d1db	0.0015245037
11	0xbb4ae781	-0.003096074
12	0x3c0395ea	0.008031348
13	0xbab53edf	-0.0013827941
14	0x3bc82fe4	0.0061092246
15	0x3cb555ab	0.022135576
16	0xbbaecf7b	-0.005334792
17	0x3a84d249	0.0010133471
18	0xbba92bd7	-0.005162697
19	0xbc278020	-0.0102234185
20	0xbc491a9b	-0.01227441
21	0xb7899fd0	-1.6406091e-05
22	0x3cae8dda	0.021307874
23	0xbc7cdfd7	-0.015434227
24	0xbc37f721	-0.011228354
25	0x3bbff01e	0.0058574816
26	0x3cc130a7	0.02358277
27	0x3a57adb7	0.00082274846
28	0x3cb28371	0.021791192
29	0xbca7f5d0	-0.020502955
30	0x3c09e2a0	0.008415848
31	0x39b4e6c1	0.000345042
32	0xbc4a441f	-0.012345343
33	0xbccbabea	-0.024862248
34	0x3c833903	0.016018396
35	0xbbfe3cd5	-0.0077587166
36	0x3c62df12	0.013847129
37	0xbc3e3bc8	-0.011610933
38	0x3b72bdc7	0.0037039386
39	0x3b872e98	0.0041254275
40	0xbd4a8765	-0.04944553
41	0xbacd0a63	-0.0015643354
42	0x3bfbec35	0.00768807
43	0xbc6e3c2c	-0.014540713
44	0x3b30305a	0.0026884289
45	0x3c6832d6	0.0141722765
46	0x3b726e0e	0.0036991867
47	0xbc5eaf2b	-0.013591568
48	0xbc9c2aa9	-0.01906331
49	0xbc836b7c	-0.016042463
50	0xbc81eaef	-0.015859095
51	0xbab4d005	-0.0013794905
52	0xbc5b96ea	-0.01340268
53	0xbb05d53e	-0.0020421292
54	0x3ce904af	0.028444616
55	0x3cd5f30b	0.026116868
56	0xbbe5ce0b	-0.0070130876
57	0xbc51fcb5	-0.012816598
58	0x3c80e7a8	0.015735462
59	0x3cb83e50	0.02249065
60	0xbb02ecb8	-0.001997752
61	0xbbceb296	-0.00630791
62	0x3d051223	0.032488
63	0x3c8e5b55	0.017377535
64	0x3c4fd3a2	0.012684735
65	0x3bf9c6c0	0.00762257
66	0xbc1c0e71	-0.0095249275
67	0xbc728b95	-0.014803787
68	0xbc437da8	-0.011931814
69	0xbb8c9036	-0.004289652
70	0x3b16e627	0.0023025365
71	0x38bc1f28	8.970342e-05
72	0xbcd7e2ec	-0.026353322
73	0xbbc12c51	-0.0058951755
74	0x3ce2fdf1	0.02770898
75	0x3ca9b2f1	0.020715209
76	0x3c7aa003	0.015296939
77	0xbc4d3c87	-0.012526638
78	0xbb482295	-0.003053819
79	0xbce1eb98	-0.02757816
80	0xbbfd57dc	-0.007731421
81	0xbbdae017	-0.0066795456
82	0x3c6cd90c	0.014456045
83	0x3bfdf678	0.0077503286
84	0xbc274dd5	-0.010211428
85	0x3bd5652f	0.006512306
86	0x3bc56f6d	0.006025246
87	0xbcffbe79	-0.031218754
88	0x3d122142	0.03567625
89	0xbb82bf24	-0.003990071
90	0x3c0bd80c	0.008535396
91	0x3b826d9a	0.0039803507
92	0x3c3d8215	0.0115666585
93	0xba319f08	-0.00067757117
94	0x3c566bf6	0.013087263
95	0x3be3ca87	0.0069516334
96	0x3ce20083	0.027588135
97	0x3b60eb72	0.0034320024
98	0xbc065e3f	-0.008201181
99	0xbb81b975	-0.003958876
100	0xbbd89559	-0.0066096005
101	0x3c3dcfca	0.011585185
102	0x3d1e6560	0.038670897
103	0xba999e23	-0.0011720102
104	0x3b8811fc	0.0041525345
105	0x3cb94643	0.022616511
106	0xbae80882	-0.0017702731
107	0x3c8fb8f5	0.01754425
108	0x3c88836e	0.016664233
109	0xb98b393c	-0.0002655479
110	0xbc066984	-0.008203868
111	0xbc8c76f0	-0.017146558
112	0x3c1b7b3f	0.009489833
113	0x3aa7dd2f	0.0012807007
114	0xbc0c675d	-0.008569566
115	0x3c34e3e4	0.0110406615
116	0x3c0ed2b4	0.008717228
117	0x3cc347a6	0.023837876
118	0xbbca8517	-0.0061804163
119	0x3bca29ac	0.0061695185
120	0x3aa47353	0.0012546576
121	0xbaac6861	-0.0013153666
122	0xbc56259c	-0.01307049
123	0xbbc010bb	-0.0058613694
124	0xbb82c46a	-0.0039906995
125	0xbca637ee	-0.020290341
126	0x3cd61c0c	0.02613642
127	0x3bb3e112	0.005489477
128	0x3b3f47db	0.0029187116
129	0x38c72a03	9.496885e-05
130	0x3c9fef4d	0.019523287
131	0x3c6cea74	0.014460195
132	0x3bcca359	0.0062450585
133	0xbc96f382	-0.01842666
134	0xbb395695	-0.0028280367
135	0xbd123066	-0.035690688
136	0xbc85a324	-0.016313143
137	0x3c61b3f1	0.0137758115
138	0xbba60a70	-0.005067162
139	0x3ca0dcaa	0.01963647
140	0x3c6360c4	0.013878051
141	0xbc830dc1	-0.01599777
142	0x3cd0603f	0.025436519
143	0xbb2971e0	-0.0025855228
144	0x3bc675d1	0.0060565253
145	0x3cbf2366	0.023332309
146	0xbbcecbfb	-0.0063109375
147	0xbc642b7b	-0.013926382
148	0xbcefae15	-0.029257813
149	0x3c972657	0.018450899
150	0x3bdfb280	0.006826699
151	0xbb9b247a	-0.004734573
152	0xbcb57155	-0.022148767
153	0x3cb88e29	0.022528725
154	0x3c598e45	0.013278549
155	0xbc138cd9	-0.009005749
156	0x39c6d6fa	0.00037925673
157	0xbc5569f2	-0.013025748
158	0x3bb96f0c	0.00565899
159	0x3ae461c7	0.001742416
160	0x3beb084a	0.007172619
161	0x3b93836a	0.0045017498
162	0xbcc68421	-0.024232926
163	0x3b692a35	0.0035578136
164	0x3b6754b5	0.0035298292
165	0x3ce4206b	0.02784749
166	0x3b8cffa1	0.0043029343
167	0x3c891453	0.016733324
168	0xbc23c314	-0.009995241
169	0x3bb98265	0.005661296
170	0xbc33178d	-0.010930908
171	0xbc3d640b	-0.011559497
172	0xb7983170	-1.8142833e-05
173	0x3ca9bc1d	0.020719582
174	0xbc55174f	-0.0130060455
175	0x3d05d048	0.032669336
176	0xbc6b276c	-0.014352661
177	0xbcdeca22	-0.027195994
178	0xbc390a0c	-0.011293899
179	0xbcb03fcf	-0.021514801
180	0x3cf20d80	0.029547453
181	0xbc804777	-0.015659077
182	0x3c6df01c	0.014522579
183	0xbbb30123	-0.005462782
184	0xbc9477ba	-0.018123496
185	0xbcf614bc	-0.030039184
186	0xbc11ed01	-0.008906604
187	0xbb1ebb06	-0.0024220361
188	0xbc06caa2	-0.008227022
189	0x3a2898fa	0.00064314867
190	0xbba6166c	-0.005068591
191	0x3d00a099	0.031403158
192	0x3c934959	0.01797931
193	0x3c06f053	0.008236009
194	0x3cee2b6c	0.02907344
195	0x3cca6c95	0.02470998
196	0xbc0bf7ed	-0.008542997
197	0xbc3ecbcd	-0.01164527
198	0xbba137f6	-0.004920001
199	0xbcda3c46	-0.026640069
200	0xbcd86306	-0.026414406
201	0x3a7d4ba9	0.00096624583
202	0xbcbdb3e7	-0.023157073
203	0x3cb42f68	0.021995261
204	0xbbf75bb9	-0.007548776
205	0x3d075124	0.033036366
206	0xbb64dde7	-0.0034922303
207	0xbb6661b2	-0.0035153446
208	0xbc99bde9	-0.018767314
209	0x3bafec0e	0.005368716
210	0xbc4bd28c	-0.012440335
211	0xbc969693	-0.018382346
212	0xbbf364f0	-0.007427804
213	0x3d231fdc	0.039825305
214	0xbc46215f	-0.012092917
215	0x3ca5cbfa	0.020238865
216	0xbc5ad842	-0.013357224
217	0xbc7755e7	-0.015096164
218	0xbbd7b920	-0.006583348
219	0x3c93fbf9	0.018064486
220	0xbc31a0c9	-0.010841557
221	0x3a970bd8	0.0011523915
222	0xbd0a425a	-0.033754684
223	0xba06461c	-0.00051221414
224	0xbca4f258	-0.02013509
225	0x3cb6681e	0.022266444
226	0xba873c12	-0.0010317585
227	0xbbdac6e7	-0.006676543
228	0x3c4b3275	0.012402167
229	0xba2c8ecb	-0.0006582557
230	0xbbb48103	-0.0055085435
231	0xbc895f26	-0.016769003
232	0x3c8dbff9	0.017303454
233	0xbafab9a9	-0.0019128817
234	0x3c87e268	0.016587451
235	0x3c54a366	0.01297841
236	0x3d43de14	0.047819212
237	0xbbe15b92	-0.006877371
238	0xbcbf35a4	-0.023341008
239	0xbc7d4e97	-0.015460632
240	0xbb96558c	-0.0045878347
241	0xbca673ac	-0.020318829
242	0xbb6860c1	-0.003545806
243	0x3c933d87	0.017973674
244	0x3c15c3b3	0.009140897
245	0xbb66c03d	-0.0035209798
246	0xbbc8f547	-0.006132755
247	0x3cb246fc	0.021762364
248	0xbc45efb1	-0.012081073
249	0xbac67009	-0.001513959
250	0x3abc93ba	0.0014387288
251	0xbc072c92	-0.0082503725
252	0x3c33ffc8	0.010986276
253	0xbbb22ac6	-0.005437228
254	0x3b8cbf56	0.00429527
255	0x3bcb5e8d	0.0062063397

b2 f4 [1, 10]
0	0xba30095d	-0.00067152624
1	0x3883e895	6.2898886e-05
2	0xba047520	-0.00050528534
3	0xba0979fe	-0.00052443135
4	0xb99c9f4b	-0.0002987332
5	0xba3ab34b	-0.00071220536
6	0x383f7e14	4.5655368e-05
7	0xba27038f	-0.00063710747
8	0x3b20de7c	0.0024546674
9	0x3a4e0f12	0.0007860522
